Results_dir/2020-06-11-13-24-10/actor.pth (torch_old, 270478 bytes, 5 tensors)

layers.0.weight f4 [256, 4]
0	0x3e1aa174	0.15100652
1	0x3da91ed4	0.08257833
2	0xbf2e0cd6	-0.67988336
3	0xba9657c8	-0.0011470253
4	0xbe90f1b4	-0.28309405
5	0xbebb0fc9	-0.3653548
6	0x3f67f511	0.90608317
7	0xbd5e3b9c	-0.054256067
8	0x3d9d585a	0.07682867
9	0xb9b8ff23	-0.00035285307
10	0x3f457e5a	0.7714592
11	0xbca2925d	-0.019845182
12	0x3ec8ca45	0.3921682
13	0x3e7d3859	0.24728526
14	0x3e87080e	0.26373333
15	0x3cf1fa31	0.029538246
16	0xbdc78d26	-0.09743719
17	0xbd4382e7	-0.04773226
18	0xbf2a60ba	-0.66553843
19	0xbdc8c080	-0.098023415
20	0xbcf54e81	-0.02994466
21	0x3dced4fb	0.100992166
22	0xbf14258e	-0.57869804
23	0x3ccfd843	0.025371676
24	0x3d86bdb4	0.06579152
25	0xbd8e8eda	-0.069608405
26	0x3ef502ff	0.47853848
27	0x3ca20e7f	0.019782303
28	0xbda58b4f	-0.08083212
29	0x3d36fe7d	0.044676293
30	0xbf2bc808	-0.671021
31	0xbcfae54c	-0.030626915
32	0x3e6146c6	0.21999654
33	0x3defc30a	0.117071226
34	0x3f338635	0.7012666
35	0x3d5ee347	0.054415967
36	0x3e82b004	0.25524914
37	0xbc38ea71	-0.011286364
38	0xbf1ebaa9	-0.6200357
39	0xbce10aff	-0.027471064
40	0x3e91a1cc	0.28443754
41	0x3ec3f64f	0.38273856
42	0xbef4c118	-0.4780357
43	0x3dab8913	0.08375754
44	0x3de8aa77	0.113606386
45	0xbd18bbdf	-0.037288543
46	0x3f32dde4	0.6986983
47	0xbdb8a609	-0.09016044
48	0xbd933875	-0.07188503
49	0x3d6c8f87	0.057754066
50	0xbf324018	-0.6962905
51	0x3db2657e	0.08710764
52	0xbd4185a9	-0.04724661
53	0x3d384593	0.044988226
54	0xbf4cf484	-0.800606
55	0x3d15767e	0.036489956
56	0x3e1ce2b4	0.15320855
57	0x3d02541e	0.0318185
58	0x3f7ffea6	0.9999794
59	0x3db4eb94	0.088339955
60	0x3e19b91f	0.15012024
61	0xbc3ed143	-0.011646572
62	0x3f0c9340	0.54912186
63	0x3d026c09	0.03184131
64	0xbcaecf93	-0.021339213
65	0x3da68915	0.08131615
66	0xbececb83	-0.40389642
67	0xbb8e48f6	-0.0043421937
68	0x3e746f10	0.23870492
69	0x3e5c14fd	0.21492381
70	0xbcd00c4e	-0.025396492
71	0x3d62c9df	0.0553683
72	0x3d3d8aad	0.04627483
73	0xbda089e6	-0.07838802
74	0x3f3d04ac	0.73835254
75	0x3bafe2f9	0.0053676334
76	0x3d8719e0	0.06596732
77	0x3d08abaa	0.033366837
78	0x3f73eaba	0.9528004
79	0x3ccaa693	0.024737632
80	0xbe1fc79b	-0.15603487
81	0xbc998f4a	-0.018745083
82	0xbf5954f7	-0.8489527
83	0xbd9e1697	-0.077191524
84	0x3e215d0b	0.1575815
85	0xbd616f9d	-0.055038083
86	0x3f5db3f3	0.86602706
87	0x3cd7cfc3	0.026344186
88	0xbe8c2825	-0.27374378
89	0xbe5ab3c3	-0.21357636
90	0xbdfbd3db	-0.122962676
91	0xbd536e71	-0.051618997
92	0x3d898291	0.06714357
93	0x3df6d03e	0.12051438
94	0xbe085b79	-0.13316144
95	0x3d1fa437	0.038974967
96	0xbe884b0d	-0.2661976
97	0xbdcf433f	-0.10120248
98	0xbf7619d8	-0.96133184
99	0xbd74dfc9	-0.05978373
100	0x3e3c555f	0.18391941
101	0x3ea82bd9	0.32845953
102	0xbf0401bb	-0.5156514
103	0x3d7f5d06	0.062344573
104	0x3e1dc737	0.15408026
105	0x3e037d83	0.12840848
106	0xbf285ade	-0.6576365
107	0x3da2526c	0.07925877
108	0xbeabdddd	-0.33567706
109	0xbe30e4db	-0.17274801
110	0xbf8c673d	-1.0969006
111	0xbdc58f57	-0.096464805
112	0x3deead15	0.116541065
113	0x3c3bbd2c	0.011458676
114	0x3f49ad1b	0.78779763
115	0xbd8192c6	-0.06326823
116	0x3d147fd1	0.036254708
117	0xbde1146e	-0.10990225
118	0x3f073a7a	0.52823603
119	0xbb302e6e	-0.0026883143
120	0x3dd1de5b	0.10247489
121	0x3d916490	0.07099259
122	0x3e9c4ecb	0.30528864
123	0xbc9b08d9	-0.018925117
124	0x3dc0d37c	0.094153374
125	0x3c06d52d	0.008229536
126	0x3e88c0bb	0.26709542
127	0x3d2d22c9	0.0422695
128	0xbe03e024	-0.12878472
129	0xbde4ad5a	-0.11165877
130	0x3f325c68	0.6967225
131	0xbca935bf	-0.020655511
132	0x3cededcb	0.029044053
133	0xbdbbe0ff	-0.09173774
134	0x3eda4368	0.42629552
135	0x3ba8aba8	0.005147416
136	0x3e42dbc3	0.19029145
137	0xbcb1d79c	-0.021709256
138	0x3f4db697	0.80356735
139	0xbd47f693	-0.048819136
140	0xbdcadaa2	-0.09904982
141	0xbd2580b5	-0.040405948
142	0xbeffb26c	-0.49940813
143	0x3c6c5953	0.014425593
144	0x3dde7f84	0.108641654
145	0x3e8e87c9	0.2783797
146	0xbeeffbe0	-0.46871853
147	0x3d4c8735	0.04993363
148	0xbe9fb475	-0.31192365
149	0xbe58b2eb	-0.21162002
150	0x3f54c46b	0.8311221
151	0xbd4e7ff1	-0.050414983
152	0xbe8c6c98	-0.274266
153	0xbd7b4397	-0.061343756
154	0xbf1bf712	-0.60923874
155	0x3db69138	0.08914417
156	0xbe04ff46	-0.12988004
157	0x3d5c3c76	0.053768598
158	0xbf4be518	-0.79646444
159	0x3cdfcd0a	0.02731945
160	0xbd8f1791	-0.06986917
161	0xbd631c3a	-0.05544684
162	0x3eb13528	0.34610868
163	0xbd517cf8	-0.05114457
164	0xbeb2f898	-0.34955287
165	0xbe289048	-0.16461289
166	0x3f0607e7	0.5235581
167	0xbc3acb97	-0.011401079
168	0x3da28845	0.079361476
169	0xbd0dce3b	-0.034620505
170	0x3ee217d0	0.44158792
171	0x3d149837	0.036277976
172	0xbe0bec5d	-0.13664384
173	0x3ce63c00	0.028104782
174	0xbf5fc0dd	-0.8740366
175	0xbd8063ca	-0.06269033
176	0x3e9f215d	0.31080142
177	0x3eb86d69	0.36020973
178	0xbf0954ec	-0.53645205
179	0x3d972a62	0.07381131
180	0xbf74aa32	-0.955722
181	0xbea666cd	-0.32500306
182	0x3f886777	1.0656575
183	0xbcead826	-0.02866752
184	0x3d2229c4	0.039590612
185	0xbd84f0e6	-0.0649126
186	0x3f2b755d	0.6697596
187	0xbd8305c2	-0.063975826
188	0x3ee5fffd	0.44921866
189	0x3d941633	0.07230797
190	0xbe286d99	-0.16448058
191	0xbc4ea9ad	-0.012613696
192	0xbe613fa9	-0.2199694
193	0xbe2e8552	-0.17043045
194	0xbf7e2faa	-0.9929148
195	0xbdb4775f	-0.08811831
196	0x3d796c44	0.060894266
197	0xbd65b550	-0.056081116
198	0x3f50e9ee	0.8160695
199	0x3d463fb9	0.048400614
200	0x3caca38a	0.021074075
201	0x3b58360f	0.0032991206
202	0x3dd9551e	0.10611938
203	0x3c0e39ea	0.0086808
204	0x3dda22ee	0.106511936
205	0xbd88d70e	-0.066816434
206	0x3f34a900	0.70570374
207	0xbbac5c5a	-0.0052600326
208	0x3e9a0c2c	0.3008741
209	0x3e9564f5	0.29178587
210	0xbe04a532	-0.12953642
211	0x3d9ef049	0.077606745
212	0x3f6f216b	0.93410367
213	0x3b073d72	0.002063599
214	0xbf397450	-0.72443104
215	0x3d07b355	0.03313001
216	0xbcc61ff9	-0.024185168
217	0xbdc3dff1	-0.09564198
218	0xbe95799f	-0.29194352
219	0xbd17d922	-0.03707231
220	0xbeb72c40	-0.35775948
221	0xbe1fce3c	-0.15606016
222	0x3ec4f8d2	0.38471085
223	0xbd394fed	-0.04524224
224	0xbe9f6ba2	-0.31136805
225	0xbda50958	-0.08058423
226	0xbefb8dc3	-0.49131593
227	0x3d46e84e	0.048561387
228	0x3e0d837b	0.13819687
229	0xbd85e9b1	-0.06538714
230	0x3f1e3c1b	0.61810464
231	0xbd37bf4e	-0.044860177
232	0xbde11377	-0.10990041
233	0xbb221db2	-0.0024736938
234	0xbf5dcdfe	-0.86642444
235	0xbc05d6b1	-0.008168862
236	0x3e7dd4c1	0.2478819
237	0x3e39fa1d	0.18161817
238	0x3e88445e	0.2661466
239	0x3dd79dbc	0.10528132
240	0xbd869a4d	-0.06572399
241	0x3da5f4ed	0.081033565
242	0xbf21c1e6	-0.6318649
243	0x3b973ae8	0.0046151765
244	0xbdec3fec	-0.1153563
245	0x3d55d81a	0.052208044
246	0xbf326367	-0.69682926
247	0x3d5250db	0.05134664
248	0xbc1f6085	-0.009727602
249	0x3de90c54	0.113793045
250	0xbedac674	-0.42729533
251	0x3b3eb6c3	0.0029100634
252	0xbf84a64c	-1.036325
253	0xbed73643	-0.42033586
254	0x3f9f5893	1.2448906
255	0xbd7130a2	-0.05888427

layers.0.bias f4 [256]
0	0x3d396b3f	0.045268293
1	0x3b836072	0.0040093
2	0x3d179a97	0.037012663
3	0xbc311f41	-0.010810674
4	0x3c7d44e1	0.015458317
5	0x3cec47ca	0.028842825
6	0x3a130f16	0.0005609853
7	0xba36c67c	-0.00069723255
8	0xba7d9cae	-0.0009674531
9	0xbd96a59b	-0.073558055
10	0x3acfd1b8	0.0015855348
11	0xbbb2e12f	-0.005458973
12	0xbbf30d5a	-0.007417363
13	0xbced65f4	-0.02897928
14	0x3a88b48e	0.0010429786
15	0xb8f029d6	-0.00011451884
16	0xbb122c28	-0.0022304151
17	0xbce2334d	-0.027612353
18	0x3c8e8bb4	0.0174006
19	0x3d05152b	0.03249089
20	0x3bb3ea25	0.0054905587
21	0xbc34bc89	-0.011031278
22	0x3c8f2caa	0.017477352
23	0xbad194e0	-0.0015989803
24	0x3bb659a6	0.005564886
25	0xba9f3b1e	-0.0012148356
26	0xbd78077b	-0.06055401
27	0x3afc3be3	0.0019243922
28	0x3bf8d8a7	0.0075941863
29	0x3bf15904	0.007365348
30	0x3d39d287	0.04536679
31	0x3a6c7792	0.0009020503
32	0xbcf4f651	-0.029902609
33	0xba3201b1	-0.0006790413
34	0xbc127119	-0.008938097
35	0xbcfdf140	-0.030998826
36	0xbc4043c6	-0.011734908
37	0xbd8dc3ec	-0.06922135
38	0x3c6e19cd	0.014532519
39	0x3c9316f8	0.017955288
40	0x3d85e367	0.06537514
41	0x3e4476f3	0.19186
42	0x3a166aeb	0.0005737978
43	0x3cb37afc	0.02190923
44	0x3cb0f3e0	0.021600664
45	0xbe180d19	-0.14848746
46	0x3ccea633	0.025225734
47	0xbe1ea683	-0.15493207
48	0xbab20fdc	-0.0013585049
49	0xba65ea39	-0.00087705586
50	0xb99c4998	-0.0002980947
51	0xbcd1f75e	-0.02563065
52	0xbc948dfd	-0.018134112
53	0x3e30fe46	0.17284498
54	0x3d02b8d8	0.031914562
55	0xbd2ec288	-0.04266599
56	0x3c41ce9e	0.0118290465
57	0xbb1449ea	-0.0022627064
58	0xbc4bd309	-0.012440451
59	0xbcaa4289	-0.02078368
60	0x3c199082	0.009372832
61	0x3b33c63e	0.0027431394
62	0xbb4568b5	-0.0030122225
63	0xbe9797b9	-0.29607943
64	0xbb2b879d	-0.002617336
65	0x3c5a4fbd	0.013324675
66	0x39938199	0.00028134583
67	0xbc778469	-0.015107253
68	0x3b9856a6	0.004649001
69	0xbe159dc9	-0.14610972
70	0xbb3a4143	-0.0028420247
71	0xbddda2e6	-0.10822086
72	0xbbe06d70	-0.0068489835
73	0x3c586b95	0.013209243
74	0x3a4f9cb8	0.0007919776
75	0x3bbb00c3	0.005706878
76	0xbd7b9bf9	-0.061428044
77	0x3eca8a76	0.39558762
78	0x3b135800	0.0022482872
79	0xbd3ae43b	-0.045627814
80	0x3ef6a2d4	0.48171103
81	0xbb9db6d1	-0.004813053
82	0x3c4f09a5	0.012636577
83	0xbd3fc765	-0.046821017
84	0xbba03908	-0.004889611
85	0x3d40da7d	0.047083367
86	0x3c8a88ef	0.016910998
87	0x3c0268a0	0.007959515
88	0x3b0b1168	0.0021220092
89	0xbe7b612a	-0.24548784
90	0xbc175792	-0.009237187
91	0x3be91281	0.0071128015
92	0x3b73f98a	0.0037227594
93	0x3d1214ec	0.035664484
94	0xbce429cf	-0.027851967
95	0xbdb3d4ec	-0.08780846
96	0x3b3aa8e7	0.0028482021
97	0x3c7fc205	0.015610223
98	0xbeb03bb6	-0.34420556
99	0xbc2a4cc7	-0.010394282
100	0xbdfb8b23	-0.122823976
101	0x3ca9dd05	0.020735273
102	0xbe31ed88	-0.17375767
103	0xbc965c48	-0.01835455
104	0x3e852188	0.26002145
105	0xbb56623f	-0.0032712368
106	0xbc58019a	-0.013183976
107	0xbc2ae619	-0.010430836
108	0xbb68ec42	-0.0035541211
109	0x3e6bac1a	0.2301487
110	0xbb815dde	-0.0039479574
111	0xbc9fae30	-0.019492239
112	0xbd1492c2	-0.03627277
113	0xb98b64e0	-0.00026587304
114	0x3982b2ee	0.00024928845
115	0x3eb6f68b	0.35734972
116	0xbbcf15cf	-0.0063197385
117	0xbc30d0c7	-0.010791964
118	0x3af34028	0.0018558549
119	0x3936680c	0.00017395633
120	0x3e0cfc0e	0.13768026
121	0xbb7c27af	-0.0038475802
122	0xbcc474f8	-0.023981556
123	0x3c2d79a7	0.010588086
124	0xbeb8d5cc	-0.36100614
125	0x3ca98c13	0.020696675
126	0xbc6c4f7b	-0.0144232465
127	0xbc8cc9ac	-0.017186008
128	0x3d676618	0.05649385
129	0x3b41d65e	0.0029577236
130	0xba3d6de2	-0.00072261516
131	0xbe932d9a	-0.2874573
132	0xbca59c65	-0.020216176
133	0xbb9bdeb9	-0.004756775
134	0xbd03acb4	-0.032147124
135	0x3ddcf734	0.10789338
136	0xbbf04f6e	-0.0073336875
137	0x3aedf4e4	0.0018154648
138	0x3d927411	0.07151044
139	0x3cc8f5f6	0.024531346
140	0x3d57d6c7	0.052695062
141	0x3b5d5cf9	0.003377734
142	0x3bf4bd43	0.007468851
143	0x3ccc2e0f	0.024924306
144	0x3b377551	0.002799351
145	0xbcbbe82b	-0.022937855
146	0x3c18d52b	0.009328167
147	0xbd9b8808	-0.07594305
148	0xbb879ae4	-0.0041383374
149	0xbc9a6c59	-0.018850492
150	0x3902f472	0.00012488829
151	0xbbf5f52f	-0.007506035
152	0xbbc9d2ab	-0.006159147
153	0x3b729aee	0.0037018615
154	0x3ccdb36e	0.025109973
155	0xbb2cde3a	-0.0026377575
156	0x3c9dd195	0.019264976
157	0xba1f91d4	-0.0006087099
158	0xbbabb7ad	-0.0052404017
159	0x3c546bcc	0.012965154
160	0x3d7a7d0d	0.061154414
161	0xbc978a1b	-0.018498471
162	0x3c4ee179	0.012626999
163	0xbe65030e	-0.22364447
164	0xbcc76971	-0.02434227
165	0x3c64695f	0.013941138
166	0x3e01588c	0.12631434
167	0x3d1cfd0e	0.03832727
168	0xb978c190	-0.0002372323
169	0xbc399171	-0.01132618
170	0x3a22c792	0.0006209548
171	0xbcb1b5ac	-0.021693073
172	0xbc11b3e6	-0.008892989
173	0x3e5861ea	0.21131101
174	0x3cb0eebd	0.021598214
175	0xbc07ed23	-0.008296284
176	0xbbc939f8	-0.0061409436
177	0x3c89ac09	0.016805666
178	0xbb1a8745	-0.0023579162
179	0xbbecbb9b	-0.0072245128
180	0xbb56fae5	-0.0032803353
181	0x3c22313e	0.009899436
182	0x3abc378a	0.0014359814
183	0x3b651821	0.003495701
184	0xbb4f6ad5	-0.003164937
185	0xbb0aff91	-0.0021209458
186	0xbc2d095f	-0.010561316
187	0xbe09cbda	-0.1345667
188	0xbbb2ff2c	-0.0054625478
189	0xbc5fb9fb	-0.013655181
190	0xbc8d55a4	-0.01725275
191	0x3c2380b2	0.009979414
192	0xbc522ce8	-0.012828089
193	0xbc4e09db	-0.012575592
194	0xbc082a2f	-0.008310839
195	0x3ba75052	0.0051060105
196	0x3c1ca0d5	0.00955983
197	0xbcb4bdfd	-0.02206325
198	0x3d97e3a1	0.07416464
199	0x3afc5131	0.0019250271
200	0xbda979f5	-0.082752146
201	0x3c8350d6	0.016029757
202	0xba55e498	-0.00081593683
203	0xbc2f5f0e	-0.010703815
204	0x3ba3ac91	0.0049949368
205	0x3d4244b7	0.047428813
206	0x3b43b4ab	0.0029862325
207	0x3c2d86fc	0.010591265
208	0xb9591036	-0.00020700772
209	0xbb650113	-0.0034943267
210	0x3d193558	0.03740439
211	0xbb866011	-0.0041008075
212	0x3ccf6435	0.025316337
213	0x3c57d4a9	0.013173261
214	0x3b99c9fe	0.004693269
215	0xbd7aa20b	-0.061189692
216	0xbc434ad7	-0.011919699
217	0x3cd651fd	0.026162142
218	0x3c4eed17	0.012629769
219	0xbc808d9a	-0.01569252
220	0x3ca4013e	0.020020124
221	0x3e5406e5	0.20705755
222	0x3a435443	0.00074512156
223	0x3b8a2634	0.00421598
224	0xbd5f8ff8	-0.05458066
225	0xbc356227	-0.011070765
226	0x3c4d3d92	0.012526887
227	0xbbed4bcc	-0.0072417017
228	0x3b04364d	0.0020173967
229	0xbde1bd0f	-0.11022388
230	0x3c6a435c	0.014298286
231	0x3d220da5	0.039563794
232	0xbaea50b9	-0.001787684
233	0xbc9ea0b4	-0.019363739
234	0xbc6982e9	-0.014252403
235	0x3cd3298f	0.025776653
236	0xbd7e6e9a	-0.062117197
237	0xbbefb7d2	-0.0073156143
238	0xb8998385	-7.320106e-05
239	0x3c120cfc	0.0089142285
240	0x3b92d763	0.0044812425
241	0xbea6501a	-0.32482988
242	0x3aef6401	0.0018264056
243	0xbc7047f2	-0.014665591
244	0xbb0b8fc5	-0.002129541
245	0x3b2348e7	0.002491528
246	0xbb0c9369	-0.0021450168
247	0x3cb2f07d	0.02184319
248	0xbcde5584	-0.027140386
249	0xbd1b20b8	-0.037873
250	0xbce2747c	-0.027643435
251	0x3c4b10c3	0.012394133
252	0xbf152bab	-0.5826976
253	0x3c7ec918	0.015550874
254	0xbd144ba0	-0.036204934
255	0x3c9f251f	0.01942688

layers.2.weight f4 [256, 256]
0	0xba8724b5	-0.0010310622
1	0x3d1159b3	0.035485934
2	0xbd0ed66f	-0.03487247
3	0x3ddc34ed	0.10752282
4	0x3de9383b	0.11387678
5	0xbccad7fc	-0.024761193
6	0xbd3f8024	-0.046753064
7	0xbc20dead	-0.009818715
8	0x3d2a6f62	0.04161013
9	0x3def66fc	0.116895646
10	0xbc8e1cbc	-0.017347686
11	0xbdd9535c	-0.10611603
12	0x3ce739b6	0.02822576
13	0x3ca3e436	0.02000628
14	0xbe0a1efb	-0.1348838
15	0xbc64d09b	-0.013965751
16	0xbdbdee93	-0.0927402
17	0x3dabd091	0.0838939
18	0xbbc7f457	-0.0061021256
19	0xbd2c1d61	-0.042020205
20	0x3e17103a	0.14752284
21	0x3c10099f	0.008791356
22	0xbd29cdd6	-0.041456066
23	0xbd9aff7d	-0.07568262
24	0x3e1fc409	0.15602125
25	0x3d421724	0.04738535
26	0x3dbed0bd	0.093171574
27	0x3d4635b8	0.048391074
28	0xbde904ca	-0.113778666
29	0x3d345701	0.044028286
30	0xbc5b798d	-0.013395679
31	0xbd7b6652	-0.061376877
32	0x3c3595ff	0.011083125
33	0x3db22ff2	0.08700551
34	0xbddc8db4	-0.10769215
35	0xbdb09fab	-0.08624204
36	0x3d31f764	0.04344882
37	0x3e0c544d	0.13704033
38	0x3dcacf91	0.099028714
39	0x3d393978	0.045220822
40	0x3d4f9765	0.05068149
41	0xbd16a83c	-0.036781535
42	0x3d2baedd	0.04191481
43	0x3dabb035	0.08383218
44	0xbd838e28	-0.064235985
45	0x3da707fd	0.081558205
46	0xbd6cce8e	-0.057814173
47	0x3dfad9b4	0.12248555
48	0x3c6c2503	0.014413121
49	0x3d1816db	0.03713117
50	0xbd9218f2	-0.07133664
51	0xbc9385e5	-0.018008182
52	0xbcf705c0	-0.030154109
53	0xbd3e7d67	-0.04650631
54	0xbda748dd	-0.081681944
55	0xbdcbe1c5	-0.099551715
56	0x3c832056	0.01600663
57	0xbc06dd4f	-0.008231475
58	0x3dadaa15	0.08479706
59	0xbd68852e	-0.056767635
60	0x3cf238ab	0.029568037
61	0x3dd0f8f8	0.10203737
62	0x3d95c605	0.0731316
63	0xbdaf560f	-0.08561336
64	0x3d192db2	0.037397094
65	0xbd5ec7e6	-0.054389857
66	0xbc93420d	-0.017975831
67	0x3c1f1546	0.009709662
68	0x3e51db94	0.20493919
69	0xbcf4430c	-0.029817127
70	0xbde86c75	-0.113488115
71	0xbda3b099	-0.07992668
72	0xbda33ffa	-0.07971187
73	0x3df6c3b6	0.12049048
74	0xbd3b7146	-0.045762323
75	0xbe19788a	-0.14987388
76	0xbaf0f1dd	-0.0018382628
77	0x3d9fb9f8	0.077991426
78	0x3da2a258	0.07941121
79	0xbaf0cbd3	-0.0018371291
80	0xba9a65a2	-0.0011779557
81	0xbc05babc	-0.008162197
82	0xbdc7d3c7	-0.0975719
83	0x3dcbffd3	0.09960904
84	0xbd2f6aa6	-0.042826317
85	0x3cd78ed3	0.026313221
86	0xbd626884	-0.055275455
87	0x3d3e415b	0.046449047
88	0x3d4a6554	0.04941304
89	0x3bc37ede	0.0059660515
90	0x3d93fdd0	0.07226145
91	0xbc1c4d84	-0.009539966
92	0xbdae2c98	-0.08504599
93	0x3c4e0c80	0.012576222
94	0xbd1793fa	-0.037006356
95	0xbd132d50	-0.035931885
96	0xbc97e7f2	-0.018543217
97	0x3ddffac8	0.109365046
98	0x3deff44c	0.11716518
99	0x3d43cbdb	0.047801834
100	0xbd5bbc5a	-0.053646423
101	0x3daa5812	0.08317579
102	0x3dd41cb0	0.10357034
103	0xbc960c6b	-0.018316468
104	0xbda075cd	-0.07834969
105	0x3c94a048	0.018142834
106	0xbc78b477	-0.015179745
107	0x3db4f3ad	0.0883554
108	0x3d862093	0.06549182
109	0xbd013186	-0.03154137
110	0xbdacb194	-0.08432308
111	0x3dddc3c1	0.10828353
112	0xbdd28015	-0.10278336
113	0xbe0dd014	-0.13848907
114	0xbd15e0b2	-0.03659124
115	0xbc66c5c5	-0.014085238
116	0x3ddd3a06	0.10802083
117	0x3d684a82	0.05671168
118	0x3c37dce2	0.011222096
119	0xbdb31af6	-0.08745377
120	0xbc1be77e	-0.009515641
121	0x3c4153d8	0.011799775
122	0x3b8414df	0.0040308083
123	0x3dc7f9df	0.09764456
124	0xbd3223dd	-0.043491233
125	0x3c269818	0.010168098
126	0x3d933bf8	0.071891725
127	0xbdab8ae0	-0.08376098
128	0x3d0da85e	0.034584396
129	0xbcfaa606	-0.030596744
130	0x3d9b87bd	0.075942494
131	0xbcec5f60	-0.028854072
132	0x3b1086d0	0.002205301
133	0x3dc62795	0.096755184
134	0x3da0b944	0.078478366
135	0xbce4dbd1	-0.027936848
136	0xbdf27282	-0.11838247
137	0x3cafd869	0.021465497
138	0x3dd10aa1	0.102071054
139	0xbc9f7251	-0.01946369
140	0xbc985761	-0.018596353
141	0xbc0e1362	-0.008671613
142	0xbd92e39e	-0.07172321
143	0xbd26a74a	-0.040686883
144	0x3e4fcaa5	0.20292147
145	0x3d199a82	0.037500866
146	0x3d8a4c60	0.067528486
147	0xbdca1c08	-0.09868628
148	0xbc8fbf15	-0.01754717
149	0x3c76a1b5	0.015053202
150	0x3d5e5ada	0.05428586
151	0xbc9e8a52	-0.019353066
152	0xbe034e07	-0.12822734
153	0x3dfaf8f6	0.12254517
154	0x3de5e56b	0.11225399
155	0x3dcc0c66	0.09963302
156	0x3c14fac0	0.009092987
157	0xbda71d3b	-0.08159872
158	0x3e00176c	0.12508935
159	0x3d4df5f3	0.050283384
160	0x3d8bcd22	0.06826235
161	0x3d4c2174	0.04983659
162	0x3da843ba	0.08216043
163	0xbd8ae24e	-0.067814454
164	0x3de0bc24	0.10973385
165	0x3dbb46dd	0.091443755
166	0xbc611c43	-0.013739648
167	0xbde442bd	-0.11145542
168	0xbd9f1423	-0.07767513
169	0x3d5a91b9	0.05336163
170	0x3d18994c	0.03725557
171	0xbd91972b	-0.07108911
172	0xbda8d7f6	-0.08244316
173	0xbd5f4d2f	-0.054516967
174	0xbdbb21ac	-0.09137282
175	0x3d7581ac	0.059938118
176	0x3d3a516c	0.045487806
177	0xbdc1ae45	-0.094570674
178	0xbdea7b89	-0.11449344
179	0xbd274843	-0.0408404
180	0x3e1ab39f	0.15107583
181	0xbd29a482	-0.041416653
182	0xbd8c3e6a	-0.06847842
183	0xbdabe275	-0.083928026
184	0xbd9acb44	-0.07558301
185	0xbe65c3c3	-0.22437958
186	0x3d8379fb	0.0641975
187	0x3c27e9a2	0.0102485735
188	0xbda6facf	-0.08153307
189	0x3d3c74f7	0.046009984
190	0x3a5a6ea8	0.0008332529
191	0xbe0c0dbb	-0.13677113
192	0xbd19e248	-0.037569314
193	0x3df2a529	0.11847908
194	0x3d7059cd	0.05867939
195	0x3e167787	0.14694034
196	0x3d98cc78	0.07460874
197	0x3dc1e5be	0.09467648
198	0xbd36cc18	-0.044628233
199	0x3b1f88c6	0.0024342998
200	0xbd39344d	-0.045215894
201	0x3d4f49fd	0.05060767
202	0xbd51611d	-0.051118005
203	0x3d486bcd	0.04893093
204	0x3dd49ee5	0.10381869
205	0xbcbf10a6	-0.023323368
206	0x3d0ad739	0.03389666
207	0x3d6378d6	0.05553516
208	0xbd581dfc	-0.05276297
209	0x3c216b43	0.009852233
210	0x3ca25f50	0.01982084
211	0x3d934f30	0.07192838
212	0x3d261f05	0.040556926
213	0x3c821d20	0.015883029
214	0xbd5db600	-0.054128647
215	0x3dab1be5	0.0835493
216	0xbd05bd3f	-0.032651182
217	0xbc89fba8	-0.016843632
218	0xbc2204ba	-0.009888822
219	0x3db77a9e	0.08958934
220	0x3d3d086f	0.04615062
221	0x3d8e28b5	0.06941358
222	0xbd9ce500	-0.07660866
223	0xbd9db359	-0.077002235
224	0xbc6dfdd6	-0.014525851
225	0x3da1e76f	0.079054706
226	0x3d9888dd	0.074479796
227	0x3d464789	0.048408065
228	0x3dc65117	0.096834354
229	0xbce2e071	-0.027694913
230	0x3d48a4e1	0.048985366
231	0xbd650a92	-0.055918284
232	0x3d845dfc	0.064632386
233	0xbd555864	-0.05208625
234	0x3bbccf3d	0.0057620094
235	0xbd4e9e56	-0.05044397
236	0x3d03af13	0.032149386
237	0xbd6214db	-0.05519567
238	0xbd4c4fb5	-0.049880702
239	0x3dbf816e	0.09350859
240	0xbca59e36	-0.020217042
241	0xbd8e4f26	-0.0694869
242	0xbdd74418	-0.10511035
243	0xbc101902	-0.008795025
244	0x3dcaed64	0.0990856
245	0xbe6085d4	-0.21926051
246	0x3dc8a882	0.09797765
247	0x3d5a8ce9	0.05335704
248	0x3df99731	0.121870406
249	0xbc68e037	-0.014213613
250	0xbd38f180	-0.045152187
251	0x3d65e43d	0.056125868
252	0xbda0ea19	-0.078571506
253	0xbdeb634e	-0.1149355
254	0x3d49bea1	0.049254064
255	0x3db9ba5c	0.09068748

layers.2.bias f4 [256]
0	0xbc343df6	-0.011001101
1	0xbd043a0d	-0.032281924
2	0xbb7523f0	-0.0037405454
3	0x3d0a12fb	0.033709507
4	0x3d009d07	0.031399753
5	0x3c1cb5ed	0.009564859
6	0x3c819825	0.015819618
7	0x3c57b7d3	0.013166386
8	0xbcab1498	-0.020883843
9	0x3cac2c1c	0.021017127
10	0x3d043b32	0.032283016
11	0x3ade0406	0.0016938455
12	0x3c397096	0.0113183465
13	0x3cbf56ad	0.02335676
14	0x3c9badd1	0.01900378
15	0xbc931c25	-0.017957756
16	0xbc51a213	-0.012794989
17	0x3be5b96e	0.0070106303
18	0xbcb28b13	-0.021794831
19	0x3c545ac6	0.012961095
20	0x3c8fd83d	0.017559165
21	0xba172123	-0.00057651306
22	0xbc908e34	-0.017645933
23	0xbb9a4001	-0.004707337
24	0x3c9db073	0.019249177
25	0xbbbf369b	-0.005835367
26	0xbc4dc507	-0.012559182
27	0x3c629f3a	0.013831908
28	0x3cb4dec9	0.022078888
29	0x3d18d29d	0.03731023
30	0x3c733904	0.014845137
31	0x3c583799	0.013196849
32	0xbc3e6114	-0.011619825
33	0xbc3fa51e	-0.011697082
34	0xbc315a08	-0.010824688
35	0xbaf50377	-0.0018693049
36	0x3c03ffe2	0.008056613
37	0x3c6b0e55	0.014346679
38	0x3c3278fb	0.010893102
39	0x3cd93b29	0.026517468
40	0x3cc07c88	0.023496881
41	0x3c9de762	0.019275371
42	0x3cbdb3c1	0.023157002
43	0x3b0489e8	0.00202238
44	0x3c5211f3	0.012821662
45	0xbc31ec99	-0.010859632
46	0x3c9eb7be	0.019374724
47	0x3c872fda	0.01650231
48	0x3d15e161	0.03659189
49	0xbc6cf5c5	-0.014462893
50	0x3cd3c2ed	0.025849784
51	0x3c8579ac	0.01629337
52	0x3c21d7dc	0.009878125
53	0x3c817605	0.015803346
54	0x3c9f033b	0.01941072
55	0x3c800a01	0.01562977
56	0xbb32eee9	-0.0027303046
57	0xbd0361c7	-0.03207567
58	0x3b84b425	0.004049795
59	0x3d494a9e	0.049143426
60	0x3cfa5365	0.030557344
61	0x39c7cf85	0.00038110852
62	0x3cf7510e	0.030190017
63	0x3cb6b230	0.022301763
64	0x3cb27e6b	0.021788796
65	0x3aad9d19	0.0013245671
66	0x3c385f25	0.011253153
67	0x3c7f9e6b	0.015601735
68	0xbbeb115d	-0.0071737007
69	0xba42c14b	-0.00074293156
70	0x3c8d4c4c	0.017248295
71	0x3e3ab5eb	0.18233459
72	0x3d664a89	0.056223426
73	0x3ad1faaa	0.0016020138
74	0xbc43cc6d	-0.011950594
75	0x3b9f5588	0.004862491
76	0xba102b9d	-0.0005499663
77	0xbc7f5ab2	-0.015585588
78	0xbbd9cd52	-0.0066467905
79	0x3c683dfb	0.014174934
80	0x3c90beb0	0.017669052
81	0x3cac95ab	0.021067461
82	0x3cf1ec75	0.029531697
83	0xbc295127	-0.01033429
84	0x3dc979c4	0.09837678
85	0x3c812ad7	0.015767498
86	0x3cf874ae	0.030329075
87	0x3d24fb0b	0.040278476
88	0xbc2c3dfb	-0.010512824
89	0x3cc1e40a	0.023668308
90	0x3cb24100	0.02175951
91	0xbca437e5	-0.020046184
92	0x3cc857f6	0.024456006
93	0xbc0453ec	-0.008076649
94	0x3c8e9b61	0.017408075
95	0x3b83ba89	0.0040200395
96	0x3bb31325	0.0054649287
97	0x3c86d60d	0.01645949
98	0xbd021789	-0.031760726
99	0x3d882da7	0.066493325
100	0xbb7c50d1	-0.0038500319
101	0x3c4bed15	0.0124466615
102	0xbac5279a	-0.0015041709
103	0x3c98575c	0.018596344
104	0xbb8efc97	-0.004363607
105	0xbc3def77	-0.011592737
106	0x3c341f24	0.010993753
107	0xbcac8432	-0.02105913
108	0xba659eb3	-0.0008759305
109	0x3cefe0ff	0.029282091
110	0xbc3408f4	-0.010988463
111	0xbbfb0372	-0.007660323
112	0x3c3a9e9f	0.011390357
113	0x3d05a193	0.032624792
114	0x3c53f237	0.0129361665
115	0x3c0912c6	0.008366292
116	0xbce43771	-0.027858468
117	0x3d15c80a	0.036567725
118	0x3c3a12a8	0.011356987
119	0x3c1c3836	0.009534886
120	0x3c0bd81a	0.008535409
121	0x3bb040b3	0.0053788065
122	0x3ca1fb8e	0.019773271
123	0x3c7ccd4a	0.015429804
124	0x3d293db5	0.041318614
125	0xbc12ffbd	-0.008972106
126	0x3c960639	0.018313514
127	0xbc4649ec	-0.012102585
128	0x3a8a58b1	0.0010554997
129	0xbc3dd3f6	-0.01158618
130	0x3c475d35	0.012168218
131	0x3d0f9043	0.035049688
132	0x3ca58976	0.020207148
133	0xbcbb60ef	-0.02287337
134	0x3ce0d847	0.02744688
135	0x3c6cecd1	0.014460758
136	0x3a3cb1fe	0.0007198154
137	0xbc0f1568	-0.008733131
138	0xbaa554e2	-0.0012613798
139	0xbb76608c	-0.0037594168
140	0xbcad114d	-0.021126414
141	0x3c0e2e91	0.0086780945
142	0xbc11b1cf	-0.0088924905
143	0x3b3934e8	0.0028260294
144	0x3cd4318d	0.025902534
145	0xbbd352b5	-0.0064490684
146	0x3c9397cf	0.018016724
147	0x3c985c54	0.018598713
148	0x3d003659	0.03130183
149	0x3b91b13c	0.004446177
150	0x3cb1fe56	0.021727722
151	0xbbf0b4a8	-0.0073457547
152	0x3be059ea	0.006846656
153	0x3bc5e488	0.006039206
154	0xbc9bb74e	-0.019008305
155	0xbba46812	-0.005017289
156	0xbc6b774c	-0.014371704
157	0x3c05e949	0.008173295
158	0x3c385ace	0.011252118
159	0x3ca5f3c5	0.02025784
160	0x3c1470d7	0.009060106
161	0x3ce9f07c	0.028557055
162	0x3c1c68fc	0.009546515
163	0x3c274b9b	0.010210897
164	0xbc13a279	-0.0090109045
165	0x3ccb73ee	0.024835553
166	0xbc1cf738	-0.009580426
167	0x3cc030da	0.023460794
168	0x3b24be03	0.002513767
169	0x3b8fc4b6	0.0043874634
170	0x3cb5b916	0.022182982
171	0xbb5adcda	-0.0033395798
172	0x3cd78bcf	0.026311783
173	0x3d5b5a55	0.053552944
174	0x3c5af3bc	0.013363775
175	0x384b4895	4.846657e-05
176	0x3ab6d031	0.0013947544
177	0xbae7259d	-0.0017635111
178	0xbcc8735b	-0.024469068
179	0x3cbb0c94	0.022833146
180	0x3d84ecb4	0.0649046
181	0xbc1ccd79	-0.009570473
182	0xb9a90e11	-0.00032244672
183	0xbc8488ac	-0.016178451
184	0x3cd698a7	0.026195837
185	0xbc138fb1	-0.009006427
186	0xbb23911b	-0.0024958316
187	0x3cfb07f4	0.03064344
188	0xbb519e99	-0.00319854
189	0x3c0a05e5	0.008424257
190	0xbc3248db	-0.010881628
191	0xbc1e43fd	-0.009659764
192	0x3ba628d5	0.0050707855
193	0x3b8b32ee	0.0042480147
194	0x3c9ee003	0.019393926
195	0x3ca042f0	0.019563168
196	0xbc49d23e	-0.012318192
197	0xbc83bd97	-0.016081614
198	0x3bd96bc8	0.006635163
199	0x3e26c6bb	0.16286747
200	0xbb83c24c	-0.0040209647
201	0xbc21bcc6	-0.009871667
202	0x3d429a57	0.04751047
203	0x3c8b3748	0.016994134
204	0x3c98bc4c	0.018644474
205	0x3cac6ecd	0.021048928
206	0x3c47d0b0	0.012195751
207	0x39bfeac1	0.00036605264
208	0x3cba9a64	0.022778697
209	0xbb8a77cb	-0.004225706
210	0xbc84b0b6	-0.016197544
211	0x3d0dc7f4	0.03461452
212	0x3b08c8bd	0.0020871602
213	0x3c61cd75	0.013781895
214	0x3d4be33d	0.04977726
215	0x3bf83245	0.007574352
216	0xbcbe5001	-0.023231508
217	0x3ccd8704	0.025088795
218	0x3bc875fa	0.0061175795
219	0x3b83c28e	0.0040209955
220	0x3d0f7966	0.035027884
221	0x3cadf9fe	0.02123737
222	0xbc24be12	-0.010055082
223	0x3d3328cc	0.04374008
224	0x3c96966a	0.01838227
225	0x3c6ba9b8	0.014383726
226	0xbb3bb773	-0.002864328
227	0x3cd87e8f	0.026427535
228	0x3cba8f06	0.022773277
229	0x3abbda30	0.0014331993
230	0x3cb79b21	0.022412838
231	0xbbae45d7	-0.005318384
232	0x3ccbf261	0.024895849
233	0xbc5a90ad	-0.013340157
234	0x3d02f2da	0.031969883
235	0x3ce02f22	0.027366225
236	0x3c00d40b	0.007863055
237	0x3c934d78	0.017981276
238	0x3b2d04ff	0.0026400683
239	0x3bbda86d	0.0057879
240	0x3c807322	0.0156799
241	0xba870299	-0.0010300457
242	0x3cb4bfb5	0.02206407
243	0x3d12e7d3	0.035865616
244	0xbbd1173b	-0.006380943
245	0xbb5a2c3d	-0.0033290528
246	0x3a921ba6	0.0011147156
247	0x3ceec6b6	0.029147487
248	0x3c1b46d5	0.009477337
249	0x3d008f90	0.031386912
250	0x3d46c5f1	0.048528615
251	0x3cbda403	0.023149496
252	0xbcfaa558	-0.03059642
253	0x3c63d83a	0.013906533
254	0x3d86e26d	0.06586156
255	0x3cbbcd53	0.022925055

layers.4.weight f4 [1, 256]
0	0xbc979672	-0.018504355
1	0xbd847945	-0.06468443
2	0x3cbe8815	0.023258248
3	0x3df15fb1	0.1178583
4	0x3d1af88f	0.0378347
5	0xbc69ccd1	-0.014270023
6	0x3de33a5a	0.11095114
7	0xbdbfb3e7	-0.093604855
8	0xbd3a22d4	-0.04544337
9	0x3d8da1b8	0.06915611
10	0x3dd637ed	0.10459886
11	0x3ce64259	0.028107809
12	0xbd960d00	-0.07326698
13	0x3d593b2c	0.053034946
14	0x3d6d2a12	0.05790145
15	0x3ddc531d	0.1075804
16	0xbb2cfff1	-0.002639767
17	0xbdbed084	-0.09317115
18	0xbc1b4d1d	-0.009478834
19	0x3ca1029c	0.019654565
20	0x3d06da07	0.03292277
21	0xbcad7bf7	-0.021177275
22	0xbcb46cb6	-0.022024494
23	0x3c451a5f	0.012030213
24	0x3c9d1948	0.019177094
25	0xbc9ba699	-0.019000338
26	0xbd47c55a	-0.048772193
27	0x3ce9af85	0.028526077
28	0x3d978f3b	0.07400366
29	0xbdbc25e3	-0.09186914
30	0x3cf5214d	0.029923106
31	0xbe1abddd	-0.1511149
32	0xbdc557f5	-0.09635917
33	0x3debda6e	0.115162715
34	0xbc64025f	-0.013916581
35	0x3cd8d9a2	0.026470963
36	0x3d59c87e	0.05316972
37	0xbd9a31ae	-0.07529007
38	0xbdac6a68	-0.08418733
39	0x3ddfc17a	0.109255746
40	0x3dda118f	0.1064788
41	0x3d1f3307	0.038867023
42	0x3ddf2298	0.1089527
43	0xbd31e5e1	-0.04343212
44	0x3dc628d7	0.09675758
45	0xbcc6aef4	-0.024253346
46	0x3d48081b	0.048835855
47	0xbdadd1fe	-0.084873185
48	0xbdede8e7	-0.11616688
49	0x3c674397	0.014115236
50	0xbdb2cd61	-0.08730579
51	0x3d9f8a66	0.07790069
52	0xbddc4d99	-0.10756988
53	0xbd6b5e7f	-0.057463165
54	0xbdaa5de1	-0.08318687
55	0x3c96c6d4	0.018405356
56	0x3ef948c3	0.48688325
57	0xbe04b055	-0.1295789
58	0x3d3bab00	0.045817375
59	0xbe0183f0	-0.12647986
60	0x3db648bd	0.089005925
61	0xbe039c39	-0.12852563
62	0x3dabae91	0.08382905
63	0x3d1bdddd	0.038053382
64	0xbe08c0cd	-0.13354798
65	0x3cb5f241	0.022210242
66	0xbddf2e50	-0.10897505
67	0xbd2066c7	-0.039160516
68	0xbc972b17	-0.018453164
69	0x3d501682	0.050802715
70	0xbda7e3e2	-0.08197762
71	0xbede3b90	-0.43404818
72	0x3e49f8a6	0.19723758
73	0xbce4a730	-0.027911752
74	0xbc3cb542	-0.011517825
75	0x3d0123aa	0.031528153
76	0x3caa0e80	0.020758867
77	0xbd9bbf6b	-0.076048695
78	0x3d9cadee	0.07650362
79	0x3c8d0451	0.017213972
80	0xbd81034e	-0.062994584
81	0xbe19afbc	-0.15008444
82	0x3dd4f1e1	0.10397697
83	0x3c9773d9	0.018487858
84	0xbe06419d	-0.13110967
85	0xbd4e8276	-0.050417386
86	0xbe08efe9	-0.13372768
87	0xbda1a132	-0.07892074
88	0x3ce4a3f1	0.027910205
89	0x3d60084c	0.054695413
90	0x3dae11a5	0.08499459
91	0xbd11a4da	-0.035557605
92	0x3d7f2ff1	0.06230158
93	0x3d046cd4	0.03233035
94	0xbd863b91	-0.0655433
95	0xbe078554	-0.13234454
96	0xbd302ced	-0.043011595
97	0xbdadba25	-0.0848277
98	0xbd6d0b8e	-0.057872348
99	0xbe3f9e9a	-0.18712845
100	0xbcff0df0	-0.031134576
101	0x3cbec621	0.023287835
102	0xbc881076	-0.016609412
103	0xbdd612ff	-0.10452842
104	0x3d499a41	0.049219374
105	0xbcf242d7	-0.029572887
106	0xbcedb33d	-0.029016132
107	0xbd267205	-0.04063608
108	0x3d18d1d7	0.037309494
109	0xbdc291da	-0.09500475
110	0x3d045e26	0.03231635
111	0xbc2a919f	-0.010410695
112	0xbdf3652e	-0.11884533
113	0x3e05fcfa	0.13084784
114	0xbda9717f	-0.08273601
115	0x3c9bcf30	0.019019693
116	0xbd80bf33	-0.06286468
117	0x3e0d40ff	0.13794325
118	0xbe230717	-0.15920673
119	0xbe1106c5	-0.14162739
120	0xbe060b8f	-0.13090347
121	0xbcbce2f3	-0.023057437
122	0xbdd85e0d	-0.10564814
123	0x3d1afbd6	0.037837826
124	0xbdca2461	-0.0987022
125	0x3d77957e	0.0604453
126	0xbe0285ce	-0.12746355
127	0x3e068e6b	0.13140266
128	0x3cf6797d	0.030087227
129	0x3d9df997	0.07713621
130	0x3cb9b94a	0.02267136
131	0xbdd22992	-0.10261835
132	0x3d604c51	0.05476028
133	0xbd9fd135	-0.07803575
134	0x3d6d69b7	0.057962146
135	0xbe1f341c	-0.15547222
136	0x3cc82264	0.024430461
137	0x3e1c5027	0.1526495
138	0x3da9cce0	0.0829103
139	0xbce0e5d3	-0.027453339
140	0xbdad11c6	-0.08450656
141	0x3c8c1460	0.01709956
142	0xbc2d33b5	-0.01057141
143	0xbd1e6315	-0.03866871
144	0x3dd4c0fd	0.10388372
145	0x3d7bd659	0.061483715
146	0x3d761ca8	0.060085922
147	0x3d9bf7b9	0.07615609
148	0x3dc74427	0.09729796
149	0x3ce5b718	0.028041407
150	0xbed2b356	-0.41152447
151	0x3d49f3db	0.049304824
152	0x3d457624	0.04820837
153	0x3d9569dc	0.07295582
154	0xbd885859	-0.06657476
155	0xbca61691	-0.020274432
156	0x3de78b4e	0.11305867
157	0x3db4d3c3	0.08829453
158	0xbd90fe2d	-0.0707973
159	0xbd87cd35	-0.06630937
160	0x3c382f33	0.011241722
161	0x3df67003	0.12033083
162	0x3d636078	0.05551192
163	0xbd501b19	-0.050807092
164	0x3dc3da5d	0.09563134
165	0x3d66bf1f	0.05633461
166	0xbcd9c7eb	-0.026584586
167	0x3d7a364a	0.06108693
168	0xbdaba915	-0.08381859
169	0x3cf5a2a7	0.029984785
170	0x3d642c10	0.055706084
171	0xbce14fb0	-0.027503818
172	0xbde46fe8	-0.11154157
173	0x3e2c477f	0.16824149
174	0xbcfebd9c	-0.031096272
175	0xbd5b5012	-0.053543158
176	0xbd034df5	-0.032056767
177	0x3c42da54	0.011892874
178	0xbd3d6f3f	-0.04624867
179	0x3da0f99a	0.07860108
180	0xbdddd221	-0.108310945
181	0xbce09f15	-0.027419606
182	0xbd3badf0	-0.045820177
183	0x3e0ca265	0.13733824
184	0xbdddf642	-0.108379856
185	0xbcb48b52	-0.02203909
186	0xbd204160	-0.039124846
187	0x3dd7808c	0.10522565
188	0x3cdf907c	0.027290575
189	0xbda303a9	-0.079596825
190	0xbc57a8fc	-0.013162848
191	0xbca01850	-0.019542843
192	0xbe1cc935	-0.1531113
193	0xbc62cc03	-0.0138425855
194	0x3d2c4113	0.042054247
195	0xbdc5aed2	-0.09652485
196	0xbcd3b021	-0.02584082
197	0x3e0a2ae9	0.13492931
198	0x3d03d396	0.032184206
199	0x3eedfb98	0.46481013
200	0x3dba22a8	0.090886414
201	0xbc461d1e	-0.012091903
202	0xbe25dcdf	-0.16197537
203	0xbd1dbcd6	-0.038510166
204	0x3d2686fb	0.04065607
205	0x3d2e962f	0.042623695
206	0xbcb81ca7	-0.0224746
207	0xbccc49b5	-0.02493749
208	0xbdc0a637	-0.09406703
209	0xbbcd9738	-0.00627413
210	0x3e223511	0.15840556
211	0xbcd18660	-0.02557677
212	0xbd6edd70	-0.058316648
213	0x3c27e9ea	0.010248641
214	0x3e4c88e1	0.1997409
215	0xbdb1955d	-0.08671067
216	0xbd1cc0dd	-0.038269866
217	0x3dcc38a6	0.09971742
218	0x3caa1abc	0.020764701
219	0xbbfca86b	-0.0077105067
220	0x3daa2529	0.08307869
221	0xbd767656	-0.060171448
222	0x3d8ba1f5	0.06818
223	0xbdc21063	-0.09475782
224	0x3de5c4ca	0.11219175
225	0xbe4214a9	-0.18953194
226	0xbcc516a8	-0.024058655
227	0x3da7af48	0.08187729
228	0xbd927e91	-0.07153047
229	0xbd57b835	-0.052665908
230	0x3db1eac7	0.08687358
231	0xbc6d3925	-0.014478956
232	0xbdfa1de1	-0.1221273
233	0x3df69494	0.12040058
234	0xbd36b096	-0.044602
235	0x3e01e1be	0.1268377
236	0x3a39d0c5	0.0007088299
237	0x3dd8a614	0.10578552
238	0xbc7493ef	-0.014927848
239	0x3cb454d8	0.022013113
240	0xbcdd91cd	-0.027047062
241	0x3cd123d0	0.025529772
242	0xbe0acbfb	-0.13554375
243	0x3da722ee	0.08160959
244	0x3d028b29	0.031870995
245	0xba98ca96	-0.0011657055
246	0xbc143333	-0.00904541
247	0x3df578e4	0.11985949
248	0x3d8a7f09	0.06762511
249	0x3dbce699	0.092236705
250	0x3e4315e3	0.19051318
251	0x3d63d03e	0.055618517
252	0xbd0902c9	-0.03344992
253	0xbe0bcf5c	-0.1365332
254	0x3e826215	0.25465456
255	0xbd848ea5	-0.0647252
