Results_dir/2020-06-11-13-24-10/critic.pth (torch_old, 533926 bytes, 7 tensors)

layers.0.weight f4 [256, 4]
000000 ba 64 44 be 9c 33 59 3d f2 a9 c6 3d 78 22 ce 3d
       -0.19179049 0.053027734 0.09700383 0.10065168
000010 47 8d 40 3e e0 29 17 be ff 74 bd 3d 8c 6d df 3d
       0.18803893 -0.14762068 0.09250831 0.10909566
000020 cb 2b 1b be ca 4a 68 3c 20 5d 3c be 3e 4c cb bd
       -0.15153424 0.014177987 -0.183949 -0.099266514
000030 ad fb 97 3e 70 db 88 bd 37 af 36 3d e7 22 a4 3d
       0.296842 -0.066824794 0.04460069 0.080144696
000040 a2 9b 46 be 76 84 01 3e 11 e6 aa bd 13 64 b7 bd
       -0.19395307 0.12648186 -0.08344663 -0.089546345
000050 56 1d 80 bd 6f 33 2d 3d a2 9b 8c 3c cc 12 ac bd
       -0.062555954 0.04228538 0.017164055 -0.08402023
000060 64 b4 e2 3c 48 2b b6 3d e3 4e b4 3d b0 40 01 bd
       0.027673908 0.08894974 0.08804109 -0.03155583
000070 f4 55 85 be 20 cf 17 bc ae d3 d8 3a 4d ee e2 bd
       -0.2604214 -0.009265691 0.0016542578 -0.110806085
000080 da e6 81 be 36 30 88 3d b4 16 86 be 4e 02 a4 bd
       -0.25371438 0.066498205 -0.26189196 -0.08008252
000090 f7 0a 6a 3d b7 12 bd bc 73 e1 12 3c cc 35 c4 3d
       0.057139363 -0.023080213 0.008964884 0.095805734
0000a0 03 c6 4c bd 74 c6 2f 3e 79 6b ac b9 02 89 29 bd
       -0.049993526 0.17165548 -0.0003288647 -0.041390426
0000b0 1e ab 6a be e2 7a af 3d 43 05 82 be 20 90 1b be
       -0.22916839 0.0856836 -0.2539464 -0.15191698
0000c0 6e 3c e1 3d 58 b2 d9 3c 3c 9a f5 3d 2d 0a 1c 3e
       0.10997854 0.026574299 0.119923085 0.15238257
0000d0 70 10 e3 3d cb fd 4e be d1 40 b1 3d 0b a8 47 bb
       0.110871196 -0.20214002 0.08654941 -0.0030465152
0000e0 77 ff 80 be a4 5d 0c bc dc cd 9c be e2 c2 92 bd
       -0.25194904 -0.008567248 -0.30625808 -0.07166077
0000f0 af 63 03 be 8c 79 45 3e 37 ca 2e be 21 a7 b5 bd
       -0.12830995 0.19284648 -0.17069326 -0.08869768
000100 41 bc 10 3e ee 82 a7 bd b1 09 60 3e fe 67 94 3d
       0.14134313 -0.0817927 0.21878697 0.072463974
000110 b7 e5 33 be 19 30 c7 bd da 56 2b be e6 32 ee bd
       -0.17568098 -0.09725971 -0.1673235 -0.11630802
000120 08 17 74 be 86 1c 2e 3e 84 26 8c bd a4 54 21 be
       -0.2383691 0.17003068 -0.06843284 -0.15754944
000130 05 64 b3 3d 08 0f 24 b8 f7 b1 b3 3d 55 86 84 3d
       0.087593116 -3.9114646e-05 0.087741785 0.06470934
000140 0d f8 6a be 37 05 b4 bd 53 0c 87 be c6 af 89 bd
       -0.22946186 -0.08790057 -0.2637659 -0.06722979
000150 2d 3a 75 3e d2 63 08 be 69 64 6a 3e a7 71 31 3e
       0.23947974 -0.13319328 0.22889866 0.17328511
000160 59 98 1f 3c 21 94 07 3e 7d a5 01 3e 04 3d 9e b9
       0.009740912 0.132401 0.12660785 -0.0003018157
000170 52 8a 0f 3e 40 92 55 3c 8a 77 52 3e 85 b0 fb 3c
       0.14017609 0.013035357 0.20553413 0.03072382
000180 1a 47 98 be fc 56 c0 bd e2 36 99 be f3 3a c1 bd
       -0.29741746 -0.09391591 -0.29924685 -0.09435072
000190 bb b8 5b 3e 64 d8 3b be 84 dd 83 3d b3 46 2a 3e
       0.21457188 -0.18344265 0.06438735 0.16628532
0001a0 9b 16 fa 3d 07 38 f7 bd 72 2e 54 3e 12 0f 0b 3e
       0.12211343 -0.12071233 0.20720842 0.13579968
0001b0 f4 a6 93 be 71 f9 86 3d bc ab 72 be ee 05 dd bd
       -0.28838313 0.06590546 -0.23698324 -0.107921466
0001c0 42 12 d4 3d 95 1a a0 bc dc 8f d0 3d 3e cc 60 3d
       0.10355045 -0.019543925 0.10183689 0.05488228
0001d0 cc 08 19 be 2b 7a d8 3c 3e f7 1d bd 70 f1 6d bd
       -0.14944762 0.026425442 -0.038565867 -0.05809158
0001e0 12 5e 19 3d 76 09 91 3b 64 dd a9 bd 05 49 cc bd
       0.037443228 0.0044261767 -0.0829418 -0.09974865
0001f0 b3 61 4c be b5 15 66 bd 18 33 84 be 29 47 64 bd
       -0.19959144 -0.056173045 -0.2582023 -0.055731926
000200 eb e0 06 3e c6 d8 23 3b e3 c1 e9 3d 37 de 54 3e
       0.13171737 0.0025001033 0.11413934 0.20787893
000210 5d 8e 54 3b 27 0d fa bd 5a a6 2a be ff 1c 8f bd
       0.0032433488 -0.1220954 -0.1666502 -0.069879524
000220 bc 99 35 be 27 b7 8f 3d d3 c8 07 be 19 3a 65 bd
       -0.17734426 0.070173554 -0.13260202 -0.05596361
000230 a9 b0 62 3e 8b 77 af 3d c2 38 9e 3b a6 9f fc 3d
       0.22137703 0.08567723 0.0048285434 0.12335138
000240 bb 4e c2 3d 65 33 ce 3d de 69 4f 3e a3 ef 25 bd
       0.09487673 0.100683965 0.20255229 -0.04051174
000250 7a 2b 94 3d 51 94 a4 3d 43 bc 25 3e 8c 16 cd 3d
       0.07234855 0.080361016 0.16185097 0.10014066
000260 1b 9e 4b bd d1 9d a0 3d d1 16 75 3d c8 a5 d7 bd
       -0.049711328 0.07842601 0.059836213 -0.10529667
000270 bb 49 41 be 73 d3 15 be e4 c4 67 be 64 1e bf bc
       -0.18875782 -0.14631443 -0.22633702 -0.023329921
000280 2e 5c 33 3e 4d cd e7 3d 00 3f 8b 3e 50 8d 91 3d
       0.17515633 0.11318455 0.27196503 0.07107031
000290 42 57 45 3e 0c a4 4c 3d 3d 56 68 bd 8c ff 4e bd
       0.19271567 0.049961135 -0.05672287 -0.050536677
0002a0 cc e2 8d 3e 4c bc d1 3d e7 08 42 3e 8a 6e 10 3e
       0.27712095 0.10240993 0.18948708 0.14104667
0002b0 9e 66 74 be 73 9c 97 bd 3e 95 7f be dd 0e 5a bd
       -0.2386727 -0.07402887 -0.24959275 -0.05323683
0002c0 ff 40 58 3e ce 12 7e 3d ff f3 61 3e a3 f3 a7 3d
       0.21118544 0.062029652 0.22065733 0.08200767
0002d0 36 ed e2 3d ca 13 a9 3d ea 91 71 3e af 24 db 3d
       0.11080401 0.082557276 0.23590818 0.10700356
0002e0 ea 19 62 be c2 3f 5d bd ac c4 6e bd 88 ae b3 bb
       -0.22080198 -0.054015882 -0.05829303 -0.005483452
0002f0 cc 7e 0f bd 4c d4 02 3e 85 1f 84 3c b3 11 01 be
       -0.035033032 0.12776297 0.016128311 -0.12604408
000300 fb 65 aa 3d 20 26 5b bd 24 61 57 3e 7a 3f b0 3d
       0.083202325 -0.053503156 0.2103315 0.08605857
000310 17 05 1d 3c be 94 30 be 55 b2 49 bd 93 0a bb 3d
       0.009583733 -0.1724424 -0.049242336 0.09132876
000320 e9 4a fd bc a6 6d b5 bd 7e c0 d4 bb 91 b1 f3 3d
       -0.030919509 -0.088588044 -0.0064926734 0.118991025
000330 6c bb 15 3e e6 c0 10 bd 44 13 a4 bd 75 53 d2 bd
       0.14622277 -0.035340212 -0.08011487 -0.102698244
000340 d1 29 03 3e 2a 9d 50 be 00 89 02 3c 47 60 02 3d
       0.1280892 -0.20372453 0.007967234 0.0318301
000350 2d 23 d4 bd b0 ef 89 bd 6b 1f 84 bd 29 87 e6 3d
       -0.10358272 -0.0673517 -0.06451305 0.112562485
000360 b1 92 01 3e 9b a2 46 bd e4 54 6c 3c 05 ec ca 3d
       0.12653615 -0.048494916 0.014424536 0.099082984
000370 39 f2 69 3e 95 4b 2d 3d 4d 04 f3 3d 1e 9c 21 3e
       0.22846307 0.04230841 0.11866055 0.1578221
000380 b6 d0 5e 3e 12 ab 6b be 25 86 10 3e 48 25 a6 3d
       0.21759304 -0.23014477 0.14113672 0.081125796
000390 90 79 7c 3e c1 d0 2e bd 55 4d 0b 3e 9f 4d 1c 3e
       0.24655747 -0.042679552 0.13603719 0.15263985
0003a0 20 8a 0f be 8b fa 40 3d 21 74 6f be d4 e4 e0 bd
       -0.14017534 0.047113936 -0.23384143 -0.109811455
0003b0 ec 34 82 3e e7 f7 05 be 56 04 b3 3c be b8 e9 bc
       0.25431 -0.13082848 0.021852653 -0.028530475
0003c0 cf 49 a7 bc df 5a 0c be 39 08 ac bb 2d 07 c2 bc
       -0.020420937 -0.1370654 -0.0052500037 -0.023685062
0003d0 c4 91 7e 3d d5 f7 96 bd 09 25 0c 3e ee 30 cf 3d
       0.06215073 -0.07371489 0.13686003 0.101167545
0003e0 37 b5 d5 bd 95 ba 84 3d 63 d4 27 be 0d 44 3a bd
       -0.104349546 0.064809 -0.16389613 -0.045475055
0003f0 cd d0 7e 3d 51 16 b7 bb 3e 14 80 3d 26 50 6a 3d
       0.062210847 -0.005587377 0.06253861 0.05720534

layers.0.bias f4 [256]
000000 75 a2 1e 3d 06 5a 25 3b 0f 39 87 3c 37 75 56 bd
       0.03872915 0.002523066 0.0165067 -0.05235788
000010 ad 9d 36 bd 1a 41 2c bd 37 84 70 3d 08 e4 a2 3c
       -0.044583965 -0.042054273 0.05871984 0.019884124
000020 1e 9a 37 ba 39 1d 9c 3c c4 dc 93 bd b2 85 a3 3c
       -0.0007003861 0.019056903 -0.07219842 0.019961212
000030 b3 ce d0 bc 54 a0 46 3d b6 5b a7 3c c1 83 e3 3a
       -0.025489187 0.048492745 0.020429473 0.0017357991
000040 ec 21 f8 3c ac 8e d7 3c 16 e2 df 3c 62 61 60 3c
       0.030289613 0.026313148 0.027329486 0.013695093
000050 4e 14 0d 3c c6 8b 82 bc ce 87 30 3d c4 68 ab 3c
       0.008610798 -0.01593579 0.043098263 0.02092398
000060 3e eb ac 3c e6 93 a3 bc c0 4e cb bc d4 77 df 3c
       0.021108266 -0.019967984 -0.024817824 0.027278818
000070 97 a7 83 3c 24 d1 4b 3d cd 0d 86 bd d9 12 28 bd
       0.016071124 0.04976 -0.06545601 -0.0410336
000080 07 94 78 bc d3 0a 82 bd c7 bf 22 bd 9a 71 c4 3c
       -0.015172011 -0.06349721 -0.039733674 0.02397995
000090 ea e3 50 bd eb 02 22 3d 13 a2 39 bd 32 94 9e 3c
       -0.050998606 0.039553564 -0.04532058 0.019357774
0000a0 17 db f2 3a 16 50 9f bc 20 46 d7 bc 11 31 9b 3c
       0.0018528429 -0.019447368 -0.026278555 0.018944295
0000b0 22 8a fa bc dc 92 0c 3b 8c a4 56 3d b5 24 53 bd
       -0.030583445 0.002144984 0.052403018 -0.05154868
0000c0 a0 0c 20 3d a7 9d 81 3d 91 e1 3f 3d 05 65 08 bd
       0.03907454 0.06328898 0.046845976 -0.033299465
0000d0 6f 85 0d 3d 99 b2 a9 3c b6 3f 2d bd 75 35 25 bd
       0.03455108 0.020715045 -0.042297088 -0.040334184
0000e0 ed 48 14 3c 3b f0 a4 bc 50 a0 7a bc 7b 59 d4 3b
       0.00905059 -0.020134082 -0.015297011 0.0064803935
0000f0 e1 48 a8 bc a3 f8 8b 3d cb 77 0d bd 90 83 27 bc
       -0.020542564 0.06834533 -0.03453807 -0.010224238
000100 ab 36 f1 bc 11 6a 82 3c e5 a9 1d 3d 8f 06 33 bd
       -0.029445013 0.015919717 0.038492102 -0.043707427
000110 eb ca 18 bd 27 29 38 bd 83 c7 1e bd b1 a0 d1 bc
       -0.037302893 -0.04496112 -0.038764488 -0.025589319
000120 1e e7 cf ba 9e 4f 9a 3c 8b 3f 4f 3d 04 9d 65 bc
       -0.0015861725 0.018836793 0.05059771 -0.014014486
000130 fd 3b f0 3c 99 7b d9 3c 75 61 a0 3c 6f 98 51 3c
       0.02932548 0.026548194 0.019577721 0.012792691
000140 d5 af 25 3d 5e f3 6b bc 90 4b 35 3c 77 cc 68 bd
       0.04045089 -0.014401285 0.011065379 -0.056835618
000150 5c f1 a2 bd 81 1f e0 bc 9a 4f 28 bd 20 f8 b8 3c
       -0.07956192 -0.027358772 -0.04109154 0.022579253
000160 2c be 9b b9 84 b9 e0 bb 5c ef 74 bc 20 2c 12 bc
       -0.00029705593 -0.0068580527 -0.014949646 -0.008921653
000170 82 f7 b2 3c 80 cc ec bb 5e ec e9 3c 9d 36 09 3b
       0.021846537 -0.0072265267 0.028555091 0.0020937093
000180 a4 1d 3a bc a9 46 31 3d b5 c6 a9 3c d2 f8 29 3d
       -0.011359606 0.043280277 0.020724634 0.04149706
000190 13 4c 8b 3d d0 66 71 bd b1 62 7a bd 6a d0 0e 3c
       0.068016194 -0.05893594 -0.061129276 0.008716682
0001a0 7d 3a 70 bc ea 5c da bc 7c d8 a5 3c 4c d8 30 bd
       -0.014662382 -0.026655633 0.02024483 -0.043175027
0001b0 f6 b8 15 bd 94 9c ab bb ad f6 04 bd 8e 31 b2 3c
       -0.036553346 -0.0052371714 -0.03246181 0.021752145
0001c0 1f aa cc 3b d4 e2 65 3d c3 ce a1 bc 31 a1 d1 3c
       0.006245866 0.056124523 -0.019751912 0.025589557
0001d0 d6 24 fc b9 38 bb 9f 3c 3c 40 a8 bb b9 4a 9e bc
       -0.0004809263 0.019498453 -0.0051346105 -0.01932274
0001e0 27 99 37 bd 75 b8 3e bc 89 78 9c bc e4 3d 84 bd
       -0.04482379 -0.011640658 -0.019100444 -0.06457117
0001f0 d9 03 67 3c eb b1 11 3c 4c 1d e7 bc 47 ef 72 3d
       0.014100038 0.008892517 -0.028212212 0.059310224
000200 5c 66 19 3c 28 b2 99 bc 67 19 32 3c 28 22 3f bc
       0.009362783 -0.01876171 0.010870314 -0.011665858
000210 86 23 57 3a 1f cd d2 bc 58 d5 61 3d 60 c5 96 bc
       0.00082068925 -0.025732575 0.0551351 -0.018404663
000220 bb 55 59 3d f0 bd 52 3c 38 8f 03 3d d9 1b 12 bd
       0.053060275 0.012862667 0.032119006 -0.03567109
000230 85 8c 35 3d f8 2a b3 bc 17 5a 19 3d 30 48 f3 bb
       0.044323463 -0.021871075 0.037439432 -0.007424377
000240 e7 15 b0 bb c1 26 07 bc d9 dc c3 3c 04 14 b4 bc
       -0.0053737047 -0.008248986 0.02390902 -0.0219822
000250 48 64 ca 3c bc 5c 9b 3c f8 72 28 3d a8 c1 53 bd
       0.024706021 0.018965118 0.041125268 -0.051698357
000260 cf 61 b7 bc 92 30 98 bd b3 cb 3b 3d 14 8e d4 bb
       -0.022385506 -0.07431139 0.04584856 -0.0064866636
000270 f7 73 71 3c 8c 74 1e bd 77 54 b2 bb 26 85 e9 ba
       0.014737121 -0.038685367 -0.005442198 -0.0017816171
000280 54 c8 7e bd 43 85 11 bd 98 4f df 3c 8a 10 bd bc
       -0.062202767 -0.03552748 0.027259633 -0.023079176
000290 6d 28 40 3d 19 6e 83 bd 0f 90 85 bd c4 59 ed 3c
       0.046913553 -0.06417484 -0.065216176 0.028973468
0002a0 4b f1 9c 3b 8a ef 14 bd da 93 80 bd b2 f9 7e 3d
       0.0047895066 -0.036361255 -0.062782004 0.062249847
0002b0 15 f7 05 bd 27 d4 a8 bc 95 0f 17 bc 77 70 20 bc
       -0.03270634 -0.020608975 -0.009220024 -0.009792439
0002c0 fe 7f 6f 3d b9 dc 41 3c bd 56 e2 bc a1 49 c2 3c
       0.058471672 0.01183241 -0.02762925 0.02371675
0002d0 98 85 8b bd 62 9a 92 3d 39 15 98 3c 7f 26 02 3d
       -0.0681259 0.071583524 0.018564807 0.031774994
0002e0 40 22 03 bd b1 de c9 3c 98 71 39 3c 7e c3 9d bd
       -0.032015085 0.02464232 0.011318587 -0.07703303
0002f0 74 6a e1 3c 87 61 0b 3c 0d 16 c9 bd 6e 1e 39 3d
       0.027516581 0.008507139 -0.09818659 0.045195036
000300 44 c2 ff 3c a6 8c c9 bb cc fb ae bd 67 28 e4 3b
       0.031220563 -0.0061508 -0.0854412 0.006962824
000310 7c fc 25 bd ec 9d 4a 3d 5f f6 ca bc 6e 46 16 3c
       -0.04052399 0.049467012 -0.024775682 0.009172065
000320 14 07 03 3d a8 ce d3 bc 89 3f c9 bc 81 f8 18 3d
       0.031989172 -0.025855377 -0.024566429 0.037346367
000330 48 19 92 3b e9 7e 56 bb e2 16 03 3a c7 31 e2 3c
       0.00445858 -0.0032729453 0.0005000663 0.027611626
000340 17 10 35 3c ed 65 8a 3d 93 85 28 bd 5c ce a4 3d
       0.011051199 0.06757722 -0.04114301 0.080471724
000350 f8 3e 5a bd ce cb e4 bc 72 06 7a 3d 89 97 2f ba
       -0.053282708 -0.027929213 0.061041303 -0.0006698301
000360 72 20 19 3c e2 0d 57 3d fe 01 8b bb 22 40 f9 3c
       0.0093461145 0.052503474 -0.004242181 0.030426089
000370 b6 92 58 3d 8a 16 d2 bc 63 6e d3 bb 4d d4 84 3c
       0.05287429 -0.025645513 -0.006452368 0.016214514
000380 5b d7 81 bd 1a 75 94 bd 9e c0 84 bc 9b f9 86 bd
       -0.06339904 -0.07248898 -0.016205128 -0.06590577
000390 0b a1 a9 bd d1 97 a4 bd ef ff f3 bc 54 f2 77 bc
       -0.0828267 -0.08036769 -0.029785125 -0.015133459
0003a0 c1 2f 03 3d 62 eb 27 bd 50 ae 79 39 e1 07 9e bb
       0.032027964 -0.040995963 0.00023811427 -0.0048227166
0003b0 a8 4f 0a 3c 35 6b 8d 3b 90 1f 1e 3c 8d 5b 07 bd
       0.008441843 0.0043157586 0.00965108 -0.033046294
0003c0 3c 81 4e 3d 5c b5 3b bc 44 f6 92 bd 48 ec 45 bd
       0.050416216 -0.011456814 -0.07175878 -0.04832104
0003d0 09 44 4c bd 39 a0 20 bd e8 fd fe ba fe 9e a2 bd
       -0.04986957 -0.0392153 -0.0019454332 -0.079404816
0003e0 33 a7 4e 3d fd 1b cb 3c db f0 51 bd 35 2b 4f bd
       0.050452422 0.02479362 -0.05125509 -0.050578315
0003f0 15 36 d9 3c cc de 47 3c 1d 1a 2c 3d a3 14 52 3b
       0.026515046 0.012199115 0.04201709 0.0032055757

layers.2.weight f4 [256, 256]
000000 92 42 2e bc d9 70 48 bd 22 bb 38 3e 30 19 6a be
       -0.010635989 -0.048935745 0.18040136 -0.22861171
000010 cc d4 98 3d 00 29 b3 bc 64 d5 f3 3d bf ab 01 3e
       0.07462463 -0.021870136 0.119059354 0.12663172
000020 60 aa f0 3d aa 92 10 bd 81 e7 b5 3c d6 86 45 3e
       0.117512465 -0.03529612 0.022205116 0.19289717
000030 42 50 99 3c b1 3e 5b bd d0 10 1e 3e 49 f2 7a 3d
       0.018715028 -0.053526584 0.15436101 0.061266217
000040 c0 de 8a bd d9 44 33 3e 2a 47 67 3e dc 88 32 3d
       -0.067807674 0.17506732 0.2258574 0.04358755
000050 23 09 0e 3e 36 f8 72 be ce a8 ef 3c ac 2d 3a 3c
       0.13870673 -0.23727497 0.029255297 0.011363428
000060 1e 58 33 3e b4 bc bb bd c9 3e 54 be 33 c6 a9 3e
       0.17514083 -0.09166852 -0.20727076 0.33159027
000070 c0 56 c9 bd b4 07 07 3a a8 10 1e bb 16 86 46 3e
       -0.098309994 0.0005150989 -0.0024118815 0.19387087
000080 c0 0b c9 bd f1 fa 8f 3d 6f ea 2b 3e 63 76 a0 bb
       -0.09816694 0.07030285 0.16788648 -0.0048969253
000090 a7 f6 e4 bd 05 b9 2d 3d eb 37 a6 3c f8 3c 22 3e
       -0.11179858 0.042412776 0.020290336 0.1584357
0000a0 9c e8 01 be 2f 87 81 bd a0 e9 3c be 94 c5 07 3e
       -0.1268639 -0.06324612 -0.18448496 0.13258964
0000b0 78 2a 72 be bd 32 24 bd 2d 09 42 3e 78 47 85 bd
       -0.23649013 -0.04008745 0.18948813 -0.06507772
0000c0 98 1f 41 3d 8d 28 4f 3d 6b 85 93 bd 71 c4 26 be
       0.04714927 0.05057578 -0.07203182 -0.16285874
0000d0 77 6b d4 bd 55 fb ba 3d ef 9f 89 bd 81 16 d0 bd
       -0.1037206 0.09129969 -0.06719958 -0.10160542
0000e0 8a ad f1 bd 8d 5f 6f be ab 37 ac 3b 02 e6 35 bd
       -0.11800678 -0.23376293 0.0052556596 -0.044408806
0000f0 17 1b 2a 3b ee d3 e2 bd 7c 50 f7 bc 9d b8 ac bd
       0.0025956088 -0.11075579 -0.030189745 -0.0843365
000100 d5 da ed bd ac 25 ea 3d 4f d8 3c 3d b9 04 bd bd
       -0.116140045 0.114329666 0.046104725 -0.092294164
000110 83 d6 c8 3d 0b b5 75 3d a3 2a 86 3d 9d 41 7b 3d
       0.0980654 0.05998711 0.06551101 0.06134187
000120 94 7a 72 be fc 2b 5a 3d 41 a8 20 bd 76 4d 93 3d
       -0.23679572 0.053264603 -0.03922296 0.07192509
000130 9b f4 bf bd 6c a7 b7 bc 0f 4d 14 bd 16 3c 95 bc
       -0.09372827 -0.0224187 -0.0362063 -0.018217128
000140 16 13 df 3c 49 93 58 be db ac 88 3e d4 14 6d bb
       0.02723078 -0.21149935 0.26694378 -0.0036175745
000150 3d 9a f8 3d 82 c4 93 3d 52 fb 05 bd 2d 16 ad bc
       0.121387936 0.07215215 -0.03271038 -0.021128738
000160 76 1e 2b be 07 24 d2 3d 6c 85 89 3d f4 60 b7 bc
       -0.16710839 0.10260778 0.06714901 -0.022385098
000170 b3 4d ae 3d 2c 54 0b 3e b4 77 31 be 70 64 cb bd
       0.08510914 0.13606328 -0.1733082 -0.09931266
000180 52 8d 38 be c9 85 4e bc a2 8e 8d 3b 5f 85 20 3e
       -0.1802266 -0.012605139 0.0043199817 0.15675877
000190 d6 ea b1 3d 51 e3 28 3e 1c 62 2d 3c 92 78 04 be
       0.086873695 0.16492964 0.010582473 -0.12936619
0001a0 3e 0c 48 be 2f 33 73 3d 3f 7d 5e 3e 9e 9f c6 3c
       -0.1953592 0.059374984 0.21727465 0.024246033
0001b0 50 3a 53 bd a2 bd 14 3e fc 98 14 3e 59 ee 51 3e
       -0.051569283 0.14525464 0.14511484 0.20501079
0001c0 7d b6 25 bd 74 5a 0b 3e 77 50 a1 bd 8d 94 8c 3e
       -0.040457238 0.13608724 -0.078766756 0.27457085
0001d0 aa ba a7 bd 2e d2 3b 3e 59 37 c1 bd 04 2b c2 bd
       -0.081899 0.18341896 -0.09434385 -0.09480861
0001e0 32 78 e0 bd d8 30 58 be a7 a5 c7 3d 3c 86 68 3d
       -0.109604254 -0.21112382 0.097483926 0.05676864
0001f0 ab 00 90 3e 6f f4 8b 3d b2 85 3d be 31 1e 8c 3d
       0.2812551 0.068337314 -0.18508032 0.06841696
000200 d7 ee f5 3d e1 55 84 bc 8e 74 ba 3c 82 e9 06 be
       0.12008446 -0.016154232 0.022760656 -0.13175014
000210 b5 1f 18 be dd 0b c3 3d 47 68 cc bd 7b 26 bc bd
       -0.14855845 0.09523747 -0.09980827 -0.09187027
000220 2e a0 33 be 22 73 7c 3c 42 ee f8 bd f9 62 4d 3d
       -0.17541572 0.015408309 -0.12154819 0.050143216
000230 79 37 c8 3d 8a 00 e5 3c 34 a7 03 3d 59 02 2a 3e
       0.097762056 0.027954359 0.03214188 0.16602458
000240 59 8f 64 be 49 6f 7b 3d 68 a2 20 3e d5 3b 83 3d
       -0.22320308 0.061385427 0.15686953 0.064078964
000250 a7 62 a3 3c 6b a1 70 3e fc 02 c2 3d ed 5f 8c bd
       0.019944502 0.23499076 0.094732255 -0.06854234
000260 0d 5a b9 bd 9d ec 8a bd cd 7e ff bd d5 50 39 3d
       -0.09050379 -0.06783412 -0.12475357 0.045243103
000270 ac 25 5f 3e a4 3e 60 bd 57 bb 2e bd 02 d2 65 bd
       0.21791714 -0.05474724 -0.04265913 -0.056108482
000280 39 d1 6e 3d 42 76 64 3d 0f dd cf bb 24 82 33 3d
       0.058305 0.055776842 -0.006343491 0.043825284
000290 f7 48 4b bd fd 3a 38 bd f0 65 e9 bb e3 f5 c1 3d
       -0.04963013 -0.04497813 -0.0071227476 0.09470727
0002a0 3a f5 f7 3d ab f2 0c 3e fe e8 94 3d 1a be e5 bb
       0.1210732 0.13764445 0.07271002 -0.0070111873
0002b0 d8 b4 24 bd 59 a0 b1 bd 6b 40 a4 be e7 4b aa bd
       -0.04021153 -0.08673162 -0.32080397 -0.083152585
0002c0 07 ae 21 3d 31 ca 00 3e 57 2a c7 3c d7 ec 94 bd
       0.039472606 0.1257713 0.024312181 -0.07271736
0002d0 e1 02 ec bd f3 a1 01 bd 97 3e d9 bd e1 63 b9 bd
       -0.115239866 -0.031648587 -0.10607641 -0.090522535
0002e0 ee 4a 09 3c 99 29 0e 3e cb 5b 08 be 94 dc 88 3d
       0.008379681 0.13883056 -0.13316266 0.06682697
0002f0 d2 90 95 bd b0 62 11 be fc 01 41 3d f5 09 62 3e
       -0.07303013 -0.14197803 0.047121033 0.22074111
000300 74 ed 1f 3e 65 93 34 be e8 27 0e bd 7c 5b a8 3d
       0.15617925 -0.17634352 -0.034706026 0.08220574
000310 90 36 5a bd 87 b1 2a 3d 44 13 31 be fa 56 ac bd
       -0.05327469 0.04167321 -0.17292506 -0.08415027
000320 dc d7 c6 3d c7 29 8a be 73 64 0a be 5b e2 bc 3d
       0.09709141 -0.26985 -0.13514881 0.092228614
000330 6e e0 50 3e 83 61 c0 bd 0e 34 2b bd 84 cf 63 3c
       0.20398113 -0.09393599 -0.04179769 0.013904456
000340 ce 35 d9 bd 64 9e b6 bd 22 9f db bc a9 ec 64 bc
       -0.106059656 -0.08916929 -0.026809279 -0.01397244
000350 8d 1c 12 be d8 1e b6 bc 08 84 cc bd de b7 92 bd
       -0.14268704 -0.022231504 -0.099861205 -0.07163976
000360 96 0c 01 3e fa 0c b8 3d c1 b3 ca bd b3 92 a7 3d
       0.12602457 0.0898685 -0.098975666 0.081822775
000370 7a 51 e5 bc bc c7 61 bd d2 8c ec bc 1e bb 50 3e
       -0.027992953 -0.055122122 -0.028875742 0.2038388
000380 00 30 15 3d 69 7a c5 3b 81 6a f7 bd 72 7d 5c bd
       0.03642273 0.0060265553 -0.12080861 -0.05383057
000390 43 7e 33 bc 88 84 4c bd f0 03 99 bd ca 17 9d 3d
       -0.010955396 -0.04993108 -0.07471454 0.07670553
0003a0 2f a8 b7 bc 18 88 5f 3d 15 5c b9 bd 14 3e 28 3e
       -0.022419063 0.05457315 -0.090507664 0.16429931
0003b0 df 6f 2b 3e 56 a4 a5 3d 93 63 7f 3e d3 e9 95 bd
       0.16741894 0.08087985 0.24940328 -0.07319989
0003c0 68 35 7c bc bd 2b c0 bc 08 e1 5a bb 2d 73 0a 3b
       -0.015393592 -0.023458356 -0.003339829 0.002112578
0003d0 b3 a9 24 bd fc 6c 80 bd cd f8 01 bb 7a 74 36 3d
       -0.0402009 -0.06270787 -0.0019832135 0.044544674
0003e0 75 e4 c0 3b 37 7a 9d 3e a4 fa e3 bc 3a 5b 3c bc
       0.005886609 0.30757305 -0.027829476 -0.0114963595
0003f0 d3 57 59 3d e1 a6 f6 3b 86 00 4a 3d c4 0a c1 bd
       0.05306227 0.0075272177 0.049316905 -0.094258815

layers.2.bias f4 [256]
000000 e9 9c 9b 3d c0 99 12 3d e0 4b aa 3c 74 e2 60 3d
       0.075982876 0.03579116 0.020788133 0.054903463
000010 0a 88 e8 3c 96 39 0d 3d 42 89 9d 3c 5e 34 a6 3d
       0.028385181 0.034478746 0.019230489 0.08115457
000020 82 ea 10 3d 73 1a 18 3d db f9 06 3d d6 68 62 3d
       0.035379894 0.0371346 0.032953124 0.05527576
000030 39 83 48 3d 89 5f 40 3d 62 5f 07 bd 79 91 bc bc
       0.04895327 0.04696611 -0.03304995 -0.023018586
000040 69 05 2c bd 0c 19 75 3d af 3f a6 3c 34 32 32 bd
       -0.041997347 0.05983834 0.020294039 -0.04350491
000050 30 fe 51 bd 45 c2 ff 39 26 7e 5e 3d 1c 11 64 bd
       -0.051267803 0.00048782132 0.054319523 -0.05568038
000060 f5 1f 27 bd 66 bb 63 3d a0 61 53 bd 9c 89 2b bd
       -0.04080196 0.05559864 -0.051606774 -0.04187928
000070 07 5a 06 bd 0c 2c e6 bc 3e 0e 41 bd e2 52 d7 bb
       -0.0328007 -0.028097175 -0.047132723 -0.0065711597
000080 ce 83 17 3d ce 31 06 3d 63 69 ae bd b8 73 1e 3d
       0.036990933 0.03276234 -0.08516195 0.038684577
000090 e7 e3 54 bd bc 63 4a 3d bc fb 68 bd 70 04 63 3d
       -0.051975157 0.04941152 -0.056880698 0.055424154
0000a0 29 e5 7e 3d bc b0 95 3d 3c f1 5a bd bc fa b1 bc
       0.062230263 0.073091 -0.053452715 -0.021726005
0000b0 ad 7d 28 bd 73 03 33 bd 0e 09 96 3d 3f 8d a2 bc
       -0.04113548 -0.04370446 0.07325946 -0.019842742
0000c0 b2 dc a8 bc e1 a1 1d bd 3a b8 87 3c 3b 76 28 bd
       -0.020613048 -0.038484458 0.016567338 -0.04112838
0000d0 a1 70 0a bd 79 fd 28 3d 5d fb 08 3c b4 d0 2d bd
       -0.033798818 0.041257355 0.008360711 -0.042435363
0000e0 1b d6 29 bd 13 51 44 3d 21 cc 12 bd 20 2e 41 bd
       -0.041463953 0.04792888 -0.035839204 -0.04716313
0000f0 ae 4d 27 3d e9 c6 9f 3d aa 22 83 bd fd dd 23 bb
       0.040845565 0.07801611 -0.06403096 -0.0025004141
000100 8d ef a6 3d 20 a1 fa bb 18 b0 2e 3d 40 3f 50 3d
       0.081511594 -0.007648602 0.042648405 0.05084157
000110 12 17 a9 bb cb 7b 3a bd d7 bc 17 3d c0 5a 82 3c
       -0.005160221 -0.045528214 0.037045326 0.015912414
000120 10 99 82 3d b1 d4 27 bd 63 84 d3 bc 2b de 71 bc
       0.063768506 -0.040974323 -0.025819963 -0.014762442
000130 eb a1 36 3d c4 82 1c 3d d4 de 24 3d f4 be 98 3d
       0.04458801 0.038210645 0.040251568 0.074582964
000140 36 53 9d 3d 73 88 c1 3c 1f be 5b 3d 42 46 6e bd
       0.07681887 0.023624634 0.05364811 -0.05817247
000150 22 fe a0 3c 07 12 29 bd 8a 36 0f 3d 6f 8d e3 bc
       0.01965243 -0.041276958 0.034964122 -0.027777402
000160 2f 87 92 3c 38 5d 5f 3d 16 b6 d8 bc d5 62 1f bd
       0.017886726 0.05453226 -0.026454013 -0.038912613
000170 fe 5e 93 bd 18 34 16 3d f5 f4 aa 3b ba ee 4c bd
       -0.07195853 0.036670774 0.0052171894 -0.050032355
000180 c1 b6 39 3d 73 b2 a1 3c 3c 13 46 3d 3d f1 9a 3c
       0.045340303 0.019738412 0.048358187 0.01891386
000190 74 76 db bc e1 d7 f8 bc ab 8e 45 3d 69 df 01 bd
       -0.026789881 -0.030376377 0.048231762 -0.0317072
0001a0 f2 e7 a1 3d 8f ee 0b 3d 8a e3 c2 3c 70 0d 91 3c
       0.07905568 0.034163054 0.02379014 0.017706603
0001b0 f8 29 29 bd d1 13 96 bc 73 20 1f bd a0 5f 1f 3d
       -0.04129979 -0.018319996 -0.038849305 0.038909554
0001c0 d7 de 0c 3d b4 71 94 3d e5 a5 c2 3c b7 8a fa bc
       0.034392204 0.0724825 0.023760745 -0.030583723
0001d0 95 3d 11 3d c4 90 a0 bc e4 9d 07 bd 48 ab e7 bd
       0.03545912 -0.01960028 -0.03310956 -0.11311966
0001e0 cb c5 6f bd 9f 5b 7f bd bc 3d c7 3c d8 02 1b 3d
       -0.05853824 -0.062343236 0.02432143 0.03784451
0001f0 f0 e2 19 bd c2 f8 4d bd 25 fa 1f bd 72 58 65 3d
       -0.03756994 -0.050286062 -0.039056916 0.05599255
000200 14 32 93 bc 56 5c 58 bd fb 55 db bc 37 9d 13 bd
       -0.017968215 -0.052822433 -0.026774397 -0.036038604
000210 9d 30 be 3c b3 35 1a bd 14 43 a5 bc d5 e6 6c bd
       0.02321654 -0.037648868 -0.020173587 -0.057837326
000220 99 fd b8 bc 9f b0 31 3d df 78 4c bd c5 a7 e1 3d
       -0.022581862 0.04338133 -0.04991996 0.110183276
000230 48 ae 22 3d f9 9f 2f bd f1 d8 6a bd fc 20 27 bd
       0.03971699 -0.04287717 -0.057335798 -0.04080294
000240 03 1e 78 3d eb 2a 25 3d 4f 1f 3d 3d 45 6e 1d 3d
       0.060575496 0.040324133 0.046172436 0.03843524
000250 1f 8d 44 3d a7 3a 22 3d db 9f 44 bd bd a8 fc bc
       0.047986146 0.039606716 -0.048004013 -0.03084218
000260 d3 c1 2b bd 0a 69 27 3d fa 7e 27 bd 67 38 1e 3d
       -0.041932892 0.040871657 -0.04089258 0.03862801
000270 9f 58 40 bd 1d c7 28 3d af 96 60 3d 14 88 26 bd
       -0.046959516 0.041205514 0.054831203 -0.040657118
000280 47 dd 0e 3d 56 63 3e 3d 25 ba 1a 3d 3e 94 f9 3c
       0.034878995 0.046481453 0.037775178 0.030466195
000290 88 73 17 bd c5 13 9c 3c 6f 12 52 bd ea 08 ae 3c
       -0.036975414 0.019052396 -0.05128711 0.021244485
0002a0 3e bd 30 bd 31 43 bb bc 5f 61 16 3d 99 cb fc bc
       -0.043149225 -0.022859188 0.036713954 -0.030858802
0002b0 5c a7 01 3d 7f 8c 38 3d 67 97 4a 3d 2b c1 4d 3c
       0.031653747 0.045055863 0.049460795 0.012558262
0002c0 84 66 13 3d 82 4a 4e bd 7e 9b 4f bd 12 51 87 3d
       0.03598644 -0.050364025 -0.0506854 0.0660726
0002d0 83 70 30 3d 25 a8 6d bc bd c0 3d bd a9 e1 16 bd
       0.04307605 -0.014505421 -0.046326388 -0.0368363
0002e0 74 15 96 3a 46 62 c6 bc 11 e0 04 3d de 1f 20 bd
       0.0011450485 -0.024216782 0.03244025 -0.03909289
0002f0 c0 a4 05 bd 92 8c a0 bd f5 13 8e bd 7a 86 3d 3d
       -0.03262782 -0.07839312 -0.069374 0.046270825
000300 7f 40 d7 bc 82 b5 2c bd 58 69 95 3d 02 4c 61 bd
       -0.026275871 -0.042165287 0.07295483 -0.055004127
000310 2a 7d 20 bd cd 0e 67 3c 45 82 96 3d 50 10 22 bd
       -0.039181866 0.01410265 0.07349066 -0.039566338
000320 01 81 49 3d cc 95 a3 3d 37 42 51 bd a0 75 05 bd
       0.049195293 0.07987556 -0.051088538 -0.03258288
000330 e8 94 29 3d 5e 0f a3 bb 5d a1 d7 bc 14 2d 53 bd
       0.041401774 -0.004976197 -0.026322061 -0.05155666
000340 d5 83 43 3d 63 4a 50 bd 25 79 87 3d b5 08 e1 bc
       0.047733147 -0.05085219 0.06614903 -0.027469972
000350 eb a7 21 bd e6 29 5f 3d ed 73 c4 3d 38 5f 67 bc
       -0.03946678 0.054483317 0.095924236 -0.014121823
000360 8d 47 0a 3d 81 21 1d 3c 8b 32 9d bc 3b 3d 86 bc
       0.033759642 0.0095905075 -0.01918914 -0.016386619
000370 4b b9 0e 3d fe 0b 87 3d af 6d ea 3c 80 70 99 3d
       0.034844678 0.06594084 0.028616754 0.07492161
000380 9c 69 2c 3d 50 e2 26 3d 79 48 43 bd a0 93 5e 3d
       0.042092904 0.040743172 -0.047676537 0.054340005
000390 16 dc 4d bd 66 4d 65 bd dd 18 84 3d d9 1a 28 3d
       -0.05025872 -0.055982016 0.06450055 0.04104123
0003a0 3e 52 5e 3d 57 f9 ac bc 66 56 71 bd 5d a6 08 3d
       0.05427765 -0.021114988 -0.058920287 0.03336178
0003b0 99 30 eb 3c 78 35 e1 3c 87 d1 14 3d 10 ad 8c bd
       0.028709697 0.027491316 0.036332633 -0.068689466
0003c0 f0 1e de bc c3 af 58 bd fd 2d 96 3c 0f 43 91 3c
       -0.027114362 -0.052901994 0.018332476 0.017732171
0003d0 a6 83 65 b9 36 f3 7c bd 56 c7 9a 3d 34 0c 8e bd
       -0.00021888185 -0.06175538 0.075575516 -0.06935921
0003e0 21 c4 ce bc 4c 89 6d bd 3a 8a 41 3d 51 57 2c bd
       -0.025240006 -0.057992265 0.047250964 -0.04207546
0003f0 58 72 11 bd ae e0 d5 bc 35 50 6e bd 95 d2 ce 3c
       -0.035509437 -0.026108112 -0.05818196 0.025246898

layers.4.weight f4 [256, 256]
000000 39 14 fe 3d 1d 5c 2d 3d c1 34 52 3e f1 61 14 3d
       0.12406201 0.042324174 0.20527937 0.036226217
000010 2e a2 7f bd 86 c5 cb 3c e2 20 5e 3e 5c 2b 87 bd
       -0.062410526 0.02487446 0.21692231 -0.06600067
000020 fb 63 14 3e b9 97 da bc c8 5d 21 3e 25 51 81 3d
       0.14491265 -0.026683675 0.15758431 0.06314305
000030 18 eb 38 3e 1e c6 96 ba 24 be 97 3c db 98 7e bd
       0.18058431 -0.0011503135 0.018523283 -0.062157493
000040 a6 d4 11 be c1 37 55 bc a3 c2 9c 3d 09 39 6e 3d
       -0.14241275 -0.013013781 0.076543115 0.05815986
000050 2d 9f 55 be 33 89 3a 3d 31 ae 45 3e fa 7a 15 3c
       -0.20861502 0.045541 0.1930473 0.009123558
000060 54 ee 06 be 9f af f6 3d 20 b7 e9 3d 30 fe 92 bd
       -0.13176852 0.12045216 0.114118814 -0.07177389
000070 79 28 d2 bd 15 d6 83 bd db 9d 41 be 5f e6 88 bd
       -0.10261626 -0.06437317 -0.18907873 -0.06684565
000080 84 32 0d 3d af 84 0e 3e eb c6 fa bd b8 b5 d0 3d
       0.034472004 0.13917802 -0.12244972 0.1019091
000090 ef a3 15 be b7 70 54 3d 06 b4 21 ba f1 be 0c 3c
       -0.14613317 0.051865306 -0.0006168488 0.008590446
0000a0 7a 6f 47 3c 50 ba 12 3e a4 5b e0 bd 2f 01 ac bd
       0.012172574 0.14328885 -0.10954979 -0.08398663
0000b0 89 ec 1b be b2 8a 05 bb 32 77 83 3d 19 24 55 3d
       -0.1522695 -0.0020376858 0.06419219 0.05203638
0000c0 93 e3 f3 3d 4d 3e 3f be bd af 45 3d 3a be 08 be
       0.11908641 -0.1867611 0.0482633 -0.13353816
0000d0 4c 11 ee bd 71 3b 02 3d e1 a3 69 be 2b b2 34 be
       -0.11624393 0.03179497 -0.22816421 -0.1764609
0000e0 65 1b 50 be 68 9d 3f bd 10 65 37 be 0e 95 e8 bd
       -0.2032295 -0.046780974 -0.17909646 -0.11356555
0000f0 e4 48 dc 3d ca 1e 18 bd 91 6c df bb 3d a0 12 be
       0.1075609 -0.037138738 -0.006818362 -0.14318939
000100 61 b6 99 3d 5e 01 48 bd 5c 9e 08 3e 92 29 2e 3e
       0.07505489 -0.04882943 0.1334166 0.17008045
000110 ce 5f af bd 5e 9c c9 bd 40 18 30 3b 87 4c db 3d
       -0.08563195 -0.09844278 0.0026869923 0.10707956
000120 29 21 77 bd 90 bf 50 be 99 44 1e 3b 54 4e e3 3c
       -0.06033436 -0.20385575 0.0024149774 0.02774731
000130 0e b6 0a 3e 5c 89 ea 3d 13 77 0d 3d d7 cd c4 3d
       0.13546011 0.114519805 0.034537386 0.09609573
000140 b9 ed 0c 3e cb 83 06 3e 3a e3 08 3e c1 5c be bd
       0.13762559 0.13136213 0.1336793 -0.09295035
000150 92 95 34 3e 89 ae c0 bd 18 5a 38 3e 20 5a 52 be
       0.17635182 -0.0940829 0.18003118 -0.20542192
000160 6f 0f 2c be 64 d6 25 3e 2a 50 6a bd 37 ba d7 3d
       -0.16802762 0.16195065 -0.057205357 0.105335645
000170 54 b4 1a be ea c4 10 3e b8 3b 01 3b 41 1b 85 3d
       -0.15107852 0.14137617 0.0019719433 0.06499339
000180 94 3c 3b 3e 62 f9 13 be e9 63 27 3e 85 7a c4 bd
       0.18284827 -0.144506 0.16346706 -0.09593681
000190 69 41 bc 3d 57 81 f9 bd 63 d1 17 3e 08 4b de bd
       0.091921635 -0.12182873 0.14825968 -0.10854155
0001a0 f2 39 22 3d 42 f4 d1 bb 81 bb e9 3d fa 1d ee bd
       0.039606042 -0.0064072916 0.11412717 -0.11626811
0001b0 72 0a 3d be ff 95 b5 3c 18 38 6f bd ae 7a 70 3e
       -0.18461016 0.02216625 -0.058403105 0.23484299
0001c0 fb 7d 40 3e a5 2a 4d 3c e2 18 eb 3d d4 24 9d bb
       0.18798058 0.012522374 0.114793554 -0.00479565
0001d0 18 8c df 3b 65 3a 19 be 3d 67 60 3c 56 c9 b5 3d
       0.0068221204 -0.14963682 0.013696489 0.088762924
0001e0 e7 f1 c0 3d 12 20 38 be ba af 53 3e bc 10 fa ba
       0.09421139 -0.17980984 0.20672503 -0.0019078474
0001f0 40 6c ef bd af 48 89 3d 0d 86 b2 bc 36 38 d8 3d
       -0.11690569 0.067033164 -0.021792436 0.105575964
000200 f5 8e 3a bd 63 96 69 be 57 55 21 be 0a bf ee bc
       -0.04554649 -0.22811274 -0.15755211 -0.029143829
000210 ad 81 47 bd 08 c7 63 be 5c b0 c5 bd b8 52 b8 bd
       -0.048707653 -0.22243893 -0.096527785 -0.09000152
000220 ae 20 aa 3d 3f 46 c8 3d a5 a8 5e bd 78 c8 c3 bd
       0.083070144 0.097790234 -0.05436005 -0.09559721
000230 39 fa 1f 3e b1 32 1a 3d 13 05 0d be a9 f9 2c be
       0.15622796 0.037646 -0.13771467 -0.16892113
000240 14 79 ab 3d a9 ab 0b 3e 8d be 18 3d 21 c8 29 3e
       0.08372703 0.13639702 0.0372911 0.1658025
000250 d5 66 b5 3c 0b d8 53 3e bc df bd bc bc 13 64 bd
       0.02214376 0.20687883 -0.023177974 -0.055682883
000260 6f 6a f0 3b 39 45 fe 3d d3 81 1d bd 0c 4e bd 3d
       0.0073369066 0.12415547 -0.03845389 0.09243402
000270 db ec 4e bd a4 89 aa 3d 5c 32 e8 3d 40 84 70 be
       -0.05051885 0.08327034 0.1133773 -0.2348795
000280 54 ea e1 3d a3 13 82 3d f6 51 86 3d cc 87 17 3c
       0.11031023 0.06351402 0.065586016 0.009248685
000290 86 7b 65 be 48 00 37 3e 67 13 bc bd a2 2a b3 3d
       -0.22410402 0.17871201 -0.09183388 0.08748366
0002a0 b5 f4 2b be c5 af 55 3d ac 1c 4b 3d dc 75 ac bd
       -0.16792567 0.05216958 0.04958789 -0.084209174
0002b0 e1 2e 94 bb 70 c5 e3 3d fc c4 e8 3d 41 07 23 3e
       -0.00452219 0.111216426 0.11365697 0.15920736
0002c0 df 08 ac 3d 60 ad 6b be 90 a5 07 bd e9 55 da 3c
       0.084001295 -0.23015356 -0.033116877 0.026652293
0002d0 19 06 57 3e 74 cf 04 be 79 51 04 3e c3 03 bf bd
       0.2099842 -0.12969762 0.12921704 -0.09326889
0002e0 f3 3f ed 3d 2e a8 ea 3b 22 cd d0 3c c0 f0 4d be
       0.11584463 0.007161162 0.02548844 -0.2011137
0002f0 18 c5 67 be a0 37 a4 3a b3 ea a6 3b ec c9 0a bc
       -0.22633779 0.0012528785 0.0050938963 -0.0084709935
000300 25 7d 4b be 95 50 e1 3d 50 92 0f bd bb 6f b3 bd
       -0.19871958 0.11001698 -0.035051644 -0.08761545
000310 7a 6c 6d 3d ad cd 8a 3d eb 00 d9 bc 65 60 0d be
       0.05796478 0.06777511 -0.026489696 -0.13806303
000320 ef be 1b 3e 4d b9 9c 3d 64 ac 23 bd 4b 45 40 bd
       0.15209554 0.07652531 -0.039959326 -0.046941083
000330 a4 c1 32 3c aa 4e f5 bc 09 03 25 bd 18 c5 2c bc
       0.010910425 -0.029944737 -0.040286098 -0.010545038
000340 be 26 83 3d 1d 5b d8 bd a3 2c 05 bd 01 45 27 bd
       0.06403874 -0.105642535 -0.032513272 -0.04083729
000350 cc 34 26 bd 07 60 60 bb 84 f8 84 bc da 54 a2 3c
       -0.040577695 -0.0034236924 -0.016231783 0.019815851
000360 6c f3 c0 bc c5 ba f6 3d 75 53 5c bd 06 b4 1e be
       -0.023553573 0.12047342 -0.05379053 -0.15498361
000370 ec f7 35 bc d8 9c 01 be 64 cb 27 3e d0 b4 c7 3b
       -0.011106472 -0.12657487 0.16386181 0.0060945526
000380 5e 47 4e 3d fb df cf 3d b2 a6 28 bd 05 ec 08 3e
       0.05036103 0.10150143 -0.041174598 0.13371284
000390 77 bd 32 bd e7 ad 18 be 58 7d 2a 3d b5 c4 54 3b
       -0.04363772 -0.14910088 0.041623443 0.003246588
0003a0 ad 5b 60 bd 56 35 04 3e fd 28 37 be ae 86 8e bd
       -0.05477493 0.12910971 -0.1788673 -0.06959282
0003b0 12 d0 93 3d 2b ed e5 3d 8d 81 00 3e 0b 2f 33 3e
       0.07217421 0.11226877 0.1254942 0.17498414
0003c0 87 61 6f be 2e d7 3e be 4c ae d1 3d b1 0d 03 be
       -0.23377047 -0.18636772 0.102383226 -0.12798192
0003d0 ba d5 13 bd 50 d7 51 3d 22 74 e6 3d 13 01 1d bc
       -0.036092497 0.05123073 0.11252619 -0.009582776
0003e0 39 94 3a bd a5 c4 0c be fd 49 17 bd 52 50 71 be
       -0.045551512 -0.13746889 -0.036935795 -0.23565796
0003f0 75 7f e9 bd 87 87 94 bc c4 b1 8b bd 5a c1 2f 3e
       -0.114012636 -0.01813103 -0.068210155 0.17163602

layers.4.bias f4 [256]
000000 ea 68 02 bd db 94 23 3c f7 99 d7 3c 8b 82 8a 3c
       -0.031838335 0.00998422 0.026318533 0.01690795
000010 55 6e 1a 3d 40 20 87 3b 48 71 0c 3c 1f 9b d2 3c
       0.037702877 0.0041237175 0.00857193 0.025708733
000020 b8 72 e7 3d a6 bd 60 3c 26 65 86 bd bf 40 3b bd
       0.11301178 0.013717091 -0.06562261 -0.045716044
000030 58 9e f1 3d 90 88 74 3d 73 2a ec 3c ca 58 41 3c
       0.1179778 0.05970055 0.028828835 0.011800954
000040 26 49 ce 3c a2 db 63 3c b9 43 bb 3d f0 50 36 bd
       0.025181364 0.013907345 0.091437764 -0.04451078
000050 6d 69 be b9 ae f9 15 3b ad 03 ca 3c 3c c3 ca 3c
       -0.00036318172 0.0022884416 0.024659956 0.024751298
000060 f6 4a a1 3c be db 17 bd 2d be d6 3c 9d b3 2e 3c
       0.019689064 -0.037074797 0.02621373 0.01066294
000070 e1 54 0e 3d 4c bd a4 3d ca 50 23 3c ed c9 b7 3c
       0.034748916 0.08043918 0.009967992 0.022435153
000080 35 8a 43 3c 1b 3f 55 3c 86 a6 66 bd 53 12 e4 3c
       0.011934807 0.013015534 -0.056311153 0.027840769
000090 f0 a7 83 3c d9 de a4 3b 3f f3 a5 3b 34 b9 c9 3c
       0.01607129 0.0050314483 0.0050643976 0.024624445
0000a0 53 d3 b8 3c b5 37 d9 3c 8c 3c d4 3d 0e 61 d3 3c
       0.022561705 0.026515821 0.10363111 0.025803115
0000b0 f1 6e 01 3d 22 e8 97 3c b9 bd 00 bc df 88 8b 3c
       0.031599943 0.018543307 -0.007857733 0.017033039
0000c0 09 ea 13 3d ba ef a1 bc ec a4 c4 bc 78 16 d6 3c
       0.036111865 -0.01976763 -0.024004422 0.02613376
0000d0 7c 5c b6 3d 18 69 c3 3c ad 54 34 3d 0b 94 af 3d
       0.08904359 0.023853824 0.044026066 0.08573159
0000e0 64 49 2b 3d c0 e7 c8 3c 0a 42 bf 3c 85 9f f1 3c
       0.041818038 0.02452457 0.02334692 0.02949501
0000f0 74 7e 90 3d 93 67 11 3d 42 40 4e bd b5 cd b6 3c
       0.07055369 0.035499167 -0.05035425 0.022314886
000100 f2 e5 16 3b eb 1a 86 3c 44 e0 c6 3c b9 5f 47 3a
       0.0023025242 0.016370257 0.02427686 0.00076055113
000110 e3 c2 26 3c 4f 60 9e 3d 53 d9 b5 3c 62 8d a1 3c
       0.010178301 0.07733213 0.022198355 0.019720737
000120 17 95 af 3c b7 0d 6f 3c b7 ec 57 3a 1c 8f e9 3c
       0.021433396 0.014590672 0.00082368724 0.028510623
000130 3d 25 0c 3d 38 03 47 bc 69 e7 a0 ba e1 8d 13 bd
       0.0342152 -0.0121467635 -0.0012275997 -0.03602398
000140 bc cd 0c bb 62 94 b0 3b 35 87 81 3b 50 0e ab 3a
       -0.0021484932 0.0053887824 0.0039528855 0.001305053
000150 74 0f b0 3c ea d7 ec 3c da 41 d4 3c 12 af ba 3d
       0.021491744 0.02891155 0.025910307 0.09115423
000160 fb af 48 bb 83 f2 8d 3c e1 6d 36 bd ae 06 13 3d
       -0.003062247 0.017327553 -0.044538382 0.035895042
000170 d3 c9 e8 bc ea 79 92 3d 8e 9d ab 3c b9 95 2b 3d
       -0.02841655 0.071521595 0.020949151 0.041890834
000180 81 fc 8c bc ff 34 e4 ba 0c 82 12 3d 85 ce cd 3c
       -0.017210247 -0.0017410814 0.035768554 0.02512289
000190 d0 14 50 bc 3d e8 dd 3c 0d a4 41 bd 78 a9 71 3b
       -0.012700275 0.027088279 -0.04727559 0.0036874693
0001a0 3b 9a 8a 3b d1 3a ac 3d d5 fb d2 3c 97 d0 ac 3d
       0.0042298115 0.08409656 0.025754848 0.08438223
0001b0 e1 cf df ba d0 0b 69 3c 96 d7 c2 3c 61 1a a5 ba
       -0.0017075503 0.014224008 0.02378444 -0.0012596363
0001c0 81 cc e3 bc e7 25 16 3e a8 65 bb 3c d5 2f 29 bb
       -0.027807476 0.14662896 0.022875622 -0.0025815864
0001d0 d2 30 a7 ba cc 62 eb 3b 4f 81 9b 3d a3 5d 44 3c
       -0.0012755638 0.0071834084 0.07593023 0.011985215
0001e0 fb 93 8c 3d 23 5b 1d 3c 07 54 1a 3d 9e a7 a2 3c
       0.068641625 0.009604248 0.03767779 0.019855317
0001f0 f8 aa cc 3c c9 bd a9 3c 5a c6 b8 3b fa 0a 98 3d
       0.024983868 0.02072038 0.0056388797 0.074239686
000200 4a 0e 23 3c 74 3e 3f 3d 95 ec 0f 3d a6 d2 09 3c
       0.009952137 0.04669042 0.03513773 0.008412039
000210 e1 af ea 3b 22 ee 7c 3d a1 af 03 3d 4e d0 cb ba
       0.0071620797 0.06175054 0.032149915 -0.001554975
000220 30 5d 17 3b a0 d6 f6 3c 8b 98 3f bd 0b 2a cc 3b
       0.0023096316 0.030131638 -0.046776336 0.006230598
000230 91 3c 33 bd 2c c4 dd 3d e3 3c 5c 3d 28 05 17 38
       -0.043758933 0.108284324 0.053769004 3.6006008e-05
000240 58 49 b1 3d 43 94 e0 3c 4f 7e d2 bd fa d4 de 3d
       0.08656567 0.027414447 -0.10277998 0.10880466
000250 38 25 98 3c ef d3 ae ba fc c9 00 3c d9 a6 3d 3c
       0.018572435 -0.0013338308 0.007860657 0.011575424
000260 ca a9 d1 3b 11 87 11 3c f0 2a 98 3d 2e 07 22 3d
       0.0063984143 0.0088823 0.07430065 0.03955763
000270 cf 3b 05 3d ef 2f ea 3b be 50 01 3c 7b af 28 3c
       0.03252774 0.0071468274 0.007892786 0.010295744
000280 61 ab 6a 3c a5 2d db 3d 5d 20 e8 3d ac 0f 68 3c
       0.0143230865 0.107020654 0.11334298 0.014163893
000290 76 65 8c 3d be 49 4c 3c 3a 1d b1 3c 32 1f 5b 3c
       0.0685529 0.012468753 0.021620382 0.013374137
0002a0 b1 2f 9a 3d cb 3c 71 bd f4 f2 91 bb 3c b8 d2 3b
       0.07528628 -0.058895867 -0.004454011 0.006430654
0002b0 f4 29 ea 3c 77 72 e5 bc 9a e7 0e 3c 43 64 94 bd
       0.028584458 -0.028008683 0.00872221 -0.07245686
0002c0 78 8b e4 bc 81 d9 47 3d 3c 85 39 bd 98 26 2e bc
       -0.027898535 0.048791412 -0.045293078 -0.010629319
0002d0 34 ea 92 3a 4b 65 3e 3d 23 32 ec ba f0 05 21 bb
       0.0011208714 0.04648332 -0.0018020313 -0.002457019
0002e0 4f 9c 82 3d b7 60 06 bd 02 a0 e1 3c 34 0e b6 3c
       0.0637747 -0.03280708 0.027542118 0.02222357
0002f0 36 da 2a bd 6f a7 7a 3b ec 9d 5c bb 2f 0c da 3c
       -0.04171201 0.003824677 -0.0033663465 0.026617138
000300 b6 4d 1d 3d 4a 2d e2 3c 8e 17 ba 3d 97 a9 3f bb
       0.03840419 0.027609486 0.09086524 -0.002924537
000310 bc b2 12 3c a5 1e 94 3d b8 56 d5 3d ae d2 62 3c
       0.008953746 0.072324075 0.10416931 0.013844175
000320 ca 82 c3 3c b0 6b 16 bb 78 f0 f4 bc f4 25 1b 3e
       0.023866076 -0.002295237 -0.02989982 0.15151197
000330 da 61 e1 b9 4a 7d 09 bd 49 40 84 3c 4b 65 ad 3c
       -0.0004298825 -0.03356675 0.016143935 0.021166464
000340 05 88 c2 3c 1f 2f 1d 3e f6 02 dd 3b c5 4a e0 bc
       0.0237465 0.15350007 0.0067447377 -0.027379403
000350 4c cc 78 3d 79 48 33 3d 81 75 39 3d 20 18 00 3d
       0.060741708 0.043770287 0.045278076 0.031273007
000360 6a 80 6c 3c 63 35 24 3c 54 6d d8 3b 53 43 a0 3c
       0.014434913 0.010022494 0.00660483 0.019563353
000370 dd a2 11 3d 56 2c bd 3c 7e d8 e7 3c c7 f0 b6 3c
       0.03555571 0.02309243 0.028301474 0.022331608
000380 22 ef f8 3a e5 81 95 3c 92 a9 bd 3c 98 d8 e5 3c
       0.0018992166 0.018250415 0.023152146 0.028057382
000390 16 11 81 3d 74 6d b3 bc c9 59 19 3c d0 28 0f bb
       0.06302087 -0.021902777 0.009359785 -0.0021844395
0003a0 9d c4 7f 3c 7a 09 ad 3c 0b 0a b8 bc dd c7 b3 3c
       0.015610841 0.021122683 -0.022465726 0.021945888
0003b0 26 41 d0 3c 2c 22 2a bd 50 23 80 3a 4f ab 85 3d
       0.02542169 -0.041536495 0.0009776149 0.06526815
0003c0 5f 8d 54 3c eb 76 96 3d 43 a3 ad 3c 52 18 19 bd
       0.012973159 0.073469006 0.021196013 -0.03737671
0003d0 d3 0e 91 b9 34 42 85 3c ae d6 9e 3b 22 55 0c 3d
       -0.000276676 0.01626692 0.004847369 0.034260876
0003e0 13 b9 f5 3a 52 7f ac 3c 64 db 54 3c 7f 8e bb 3c
       0.0018747173 0.021056805 0.01299176 0.022895096
0003f0 02 48 66 3c 87 d2 87 3c cb fb 17 bd 11 0f 96 3c
       0.014055254 0.01657988 -0.037105363 0.018317731

layers.6.weight f4 [1, 256]
000000 f3 ea 90 3c b1 cd 05 be 01 e5 d3 bd 4f aa f7 bd
       0.017690158 -0.13066746 -0.103464134 -0.12093031
000010 84 b2 8f bd 34 ee 90 bd 25 a8 89 3c a8 a7 27 be
       -0.07016471 -0.07076684 0.01680381 -0.1637255
000020 9f 90 39 bd 66 ca 0a 3c 65 44 87 3c c2 c8 97 3d
       -0.045303937 0.008471107 0.016512105 0.074113384
000030 6c e3 7d bd 3d 6a 33 bd 5a 4e 3c bd 89 22 26 be
       -0.061984465 -0.04380249 -0.04597316 -0.16224112
000040 c9 b1 32 be 73 f7 fc bd 70 1e 87 bc db 2c 55 3d
       -0.17450632 -0.12351885 -0.016494006 0.05204473
000050 0a d1 e1 3d 57 a8 61 3d b1 89 1a be 26 5b 27 be
       0.11026199 0.055092182 -0.15091588 -0.16343364
000060 c0 13 88 bd c4 31 25 3d 12 f6 d1 bd c0 86 20 be
       -0.06644392 0.040330663 -0.10252012 -0.15676403
000070 a9 67 d7 bd b0 5d 27 bc b9 f4 27 be 4e c1 19 be
       -0.105178185 -0.010215208 -0.16401948 -0.15015146
000080 25 ab 30 be 91 d1 f7 bd 04 5d 1c 3d 11 e1 38 be
       -0.17252786 -0.121005185 0.038174644 -0.18054606
000090 ac bb 1c be dc f4 2c 3d 95 4d 1c 3d ed e7 b4 bd
       -0.15305966 0.042225704 0.038159925 -0.08833299
0000a0 6e 6a fc bd c1 86 a0 bd 0b 74 2c bd cf 58 17 be
       -0.12324987 -0.07838202 -0.042102855 -0.14779972
0000b0 44 02 c9 bd f2 cd 81 bd 2d 68 da 3d 9b 03 34 be
       -0.09814885 -0.06338109 0.10664401 -0.175795
0000c0 a3 22 c0 bc 67 e5 ac 3b 81 e9 38 3d 9a 4e 19 be
       -0.023454016 0.0052763703 0.04514456 -0.1497139
0000d0 c0 56 5b bd 3b 66 03 be ae 47 f7 bb 93 9e c5 bc
       -0.053549528 -0.12831967 -0.0075463867 -0.024123466
0000e0 de fc 6f bd b3 1a c8 bd 6e 5a 22 be be 1e 7e bd
       -0.058590762 -0.097707175 -0.15854809 -0.062041037
0000f0 16 dc 4c bd f3 70 76 bd a9 f6 09 3d 21 23 29 3c
       -0.050014578 -0.06016631 0.0336825 0.010323317
000100 fb 9c a3 3d 0f 9c 34 be 3f ae de bd 2d d9 b4 3d
       0.07988926 -0.17637657 -0.108730786 0.088304855
000110 46 bc 2b 3d f3 52 41 bd 0d 37 33 be 96 ee 2d be
       0.0419276 -0.047198247 -0.17501469 -0.16985545
000120 88 f6 da bd b5 23 23 be c2 e9 a2 3d 25 c2 43 be
       -0.10691553 -0.1593159 0.07954742 -0.19117029
000130 3a 6b 18 bd 3f f0 a5 3d da bd 97 3d 34 f1 82 3d
       -0.037211634 0.08102464 0.07409258 0.06393662
000140 0f dc d4 3d 56 12 0c 3d 82 5a 08 3d 47 2e 38 3d
       0.10393535 0.034197174 0.03328944 0.04496601
000150 68 f1 9c bd 7f 24 f4 bd d1 be d1 bd 04 7d cc bc
       -0.07663232 -0.119210236 -0.102414735 -0.024961956
000160 dc a8 b0 3d 73 83 21 be c0 75 d1 3c 91 ab d5 bd
       0.08625957 -0.157728 0.025568843 -0.10433114
000170 dc b8 2f 3c 83 cc 3d bd 7e 34 28 be 95 aa d7 bc
       0.010725226 -0.046337616 -0.16426274 -0.026326457
000180 ec 79 e5 3d ff e5 86 3d 59 8b fb b9 ae b8 fe bd
       0.112048954 0.06586837 -0.00047978273 -0.124375686
000190 3c c1 22 3c cc ac 63 bd 69 e5 cd 3c 87 eb bf 3d
       0.009933766 -0.055584714 0.025133805 0.09371095
0001a0 43 79 5c 3d 07 c0 4d be 49 7b 61 bd 51 14 73 bc
       0.05382658 -0.20092784 -0.055049215 -0.014836387
0001b0 83 26 b9 3d 4b 9a 67 bd cd ec 44 be 88 1a b6 3d
       0.09040549 -0.05654363 -0.19230957 0.08891779
0001c0 64 08 23 3d bd 0f 23 be 8a d6 3e bd 70 ad ce 3d
       0.039802924 -0.15923972 -0.04659132 0.10091674
0001d0 a5 21 fc 3d 4a 78 a9 3c e6 b8 d4 bb 20 92 d7 bb
       0.12311105 0.020687241 -0.006491768 -0.0065786988
0001e0 e1 30 62 bc 9b 4e a0 3c 80 3a bf 3b 84 86 c9 bd
       -0.013805599 0.019568732 0.005835831 -0.0984011
0001f0 e3 8c 47 be f7 74 2a be e0 0b 0a 3d f5 ba 50 be
       -0.19487338 -0.16646181 0.03370273 -0.20383818
000200 12 89 1b bd 7f cc 48 bd 29 c3 6b 3c a1 3a 15 3d
       -0.037972517 -0.049023148 0.0143897915 0.036432866
000210 25 7a dd 3c 78 1e 13 be 44 49 4d be bb 56 66 3d
       0.027035782 -0.14367092 -0.2004748 0.056235056
000220 84 62 98 3d fa 92 21 be 6b c3 58 3d bc 84 d4 3c
       0.07440665 -0.15778723 0.05292074 0.025942199
000230 7e a5 7d 3d 4a dc 24 bd 28 6e 09 bd d2 40 80 3d
       0.061925404 -0.040249147 -0.03355232 0.062623635
000240 63 13 d9 bc 1a 09 dd bd 71 14 8c 3d 0f ee 5f bd
       -0.026498502 -0.107927516 0.068398364 -0.05467039
000250 e5 1c 14 be dc d0 c5 3d 7e fc da 3c 51 dd 80 3c
       -0.14464147 0.096589774 0.026731726 0.015730532
000260 5f 21 f5 3c c4 3d fa 3c 25 39 91 bc d8 16 81 bd
       0.02992314 0.03054703 -0.017727444 -0.06303185
000270 65 50 db bd 7a 5c bc bd 3c b2 08 bc 6f be e6 bd
       -0.107086934 -0.09197326 -0.008343276 -0.11266791
000280 49 42 b1 3b 35 6b e2 bc 76 55 61 bd b6 c8 df bd
       0.005409513 -0.02763901 -0.055013143 -0.109269544
000290 59 53 ae bd c7 46 a2 3c 70 12 40 be d0 f8 14 be
       -0.08511991 0.01980914 -0.18757033 -0.1454804
0002a0 f6 fa ed bb 8c 8b ec 3c 1e 97 e6 3d fa ca 0e be
       -0.007262583 0.028875135 0.11259292 -0.13944617
0002b0 81 d9 2a be 72 67 5c 3c ea ca 7b 3d 5a 9d 9b 3d
       -0.16684534 0.013452398 0.06147281 0.07598372
0002c0 42 5c 4b 3d 2f c9 e6 bc 82 b3 04 3d 5b 3f ca 3d
       0.04964853 -0.028172104 0.032397754 0.09875365
0002d0 ea 57 5a 3d 15 ef 9e bc 27 df 8a 3d 69 90 f5 3d
       0.053306498 -0.019401113 0.06780844 0.11990435
0002e0 ae b7 a1 bd ae 5f 04 3d 24 ad f5 bd 99 57 ce bd
       -0.07896362 0.03231781 -0.119959146 -0.10075302
0002f0 a1 4e b9 3c 48 ed 27 3d 55 74 02 3e 1e 17 a6 bd
       0.022620501 0.040997773 0.1273969 -0.08109878
000300 4f df 8d bc c2 a7 e9 bd f9 4a d1 bc 12 d6 bb 3d
       -0.017318396 -0.114089504 -0.025548445 0.0917169
000310 23 4e a3 3c e9 7c 05 be f8 44 1d bd ea b0 22 be
       0.01993472 -0.1303593 -0.03839585 -0.158878
000320 79 c8 0e be ee 3a fa 3d 96 72 40 3d e8 2e 56 bd
       -0.13943662 0.12218271 0.046984278 -0.052290827
000330 41 d4 6a 3d f8 68 81 3c 50 75 13 be c9 82 33 be
       0.057331327 0.015797123 -0.1440022 -0.1753036
000340 6c 35 b4 bd 89 dd 24 be 9b b0 31 3d 8a 38 0f 3d
       -0.08799252 -0.16100134 0.043381315 0.03496603
000350 a5 a9 7e bd 01 b9 03 bd a0 c7 10 bd 18 f3 c1 bd
       -0.062173504 -0.032158855 -0.035346627 -0.094701946
000360 52 46 0f be d1 55 03 3d 72 70 45 3d fe b4 16 be
       -0.13991669 0.032064263 0.04820294 -0.1471748
000370 65 66 23 be 8f a3 f3 bd 69 37 8c bd ff ed e9 bd
       -0.15957029 -0.11896431 -0.06846506 -0.11422347
000380 d2 74 3d 3d a2 62 c2 bd ab 78 1f be 46 87 29 be
       0.046253987 -0.09491469 -0.15573375 -0.16555509
000390 c8 75 8b bd 2a ad f4 3b 13 90 26 be 0a e1 d2 3d
       -0.06809574 0.007466932 -0.16265897 0.10296829
0003a0 ae 61 58 bd 46 c7 22 be 7e 7c d7 3d c6 19 c5 bd
       -0.05282753 -0.1589633 0.10521792 -0.096240565
0003b0 39 41 af bd 04 0a ca 3c 03 ae 4b 3d 2a 79 31 bd
       -0.08557362 0.024662979 0.049726497 -0.04332844
0003c0 7a 0d 13 be 06 71 57 bd ee f5 3f be 79 d0 82 3c
       -0.1436061 -0.052598022 -0.18746158 0.015968548
0003d0 57 e5 79 3d b1 58 7d bd 39 7e 37 3d ed 33 2d bd
       0.06100973 -0.06185216 0.04479811 -0.04228585
0003e0 75 ea b9 3d ff cb 3b be 48 58 10 be 3a 56 f7 bd
       0.09077922 -0.18339537 -0.14096177 -0.12076993
0003f0 03 c2 1f be bb 0c 00 be 94 9c ac 3c f2 a9 3f bd
       -0.15601353 -0.12504856 0.021070756 -0.04679293
